saved_models/mpnn_model_mozart_20230321T233457.pt (torch, 272331 bytes, 39 tensors)

lin_in1.weight f4 [48, 48]
00000000: 2a06 903e f83b 3dbe 7a56 d0be 7442 cf3c
00000010: 636b c0be 43bb b3be 8d19 443e 7de8 37bf
00000020: fac5 efbd 0b38 2fbf e255 323e d172 ac3e
00000030: 6dea 163f 67b5 ff3e 65ec 2dbe 7229 8cbe
00000040: 6d49 ec3e edad a83e 0048 4ebf c7da 07bf
00000050: 29c3 a3bd 5cab a3bf a419 0bbe dbd6 64be
00000060: 2170 143f c1b3 313e 43fd 73be 9be3 7bbe
00000070: 4d66 0abf e682 9ebe f259 87bf 8ac5 66bf
00000080: 229c 803f 6722 293e 9a12 c1be 6ba4 95bf
00000090: 55d5 243f ad55 ca3d 5a22 d53e 4a34 a7be
000000a0: 3fcb c23e ae8b b1be cc7b 873e f9d3 00bf
000000b0: 0312 a3bf ad75 993e d6c4 28bf 385a fd3e
000000c0: 6357 313f 8123 4a3e 703a bd3d 097f 943d
000000d0: 47d4 21bf 4688 d0be 546a 6f3e 3342 87be
000000e0: ddf4 7e3d 7fd9 3dbe 72af 5d3d 6c36 253e
000000f0: c349 2f3e 86b5 eebe 0680 96be bd13 843c
00000100: 8611 013f 7df3 a2be f5c1 b03d b20d 243e
00000110: e8dd f3be ef18 86bd a8d0 d9bc cb21 0d3f
00000120: cc4a 13bb 7b7c 983e f46c b83e 4bcf 0fbd
00000130: b8e1 383e 1d8b 2c3f fc8a 7dbd 6670 8ebe
00000140: 6bb6 1d3e 7282 bf3e 490f a33e 3214 753d
00000150: f952 093f 283d efbe b330 abbe b8b9 093f
00000160: cef2 873d 8935 c63d 1f6a f5bd 70ae 423e
00000170: 3785 9f3f 0e64 1d3f a574 df3e 71b0 353e
00000180: 2507 bd3e 3182 93bc 87cd d73e 539d dfbe
00000190: 4959 1ebe 0d68 f3be d6f9 89be 9436 bc3e
000001a0: b95b c13e 6d84 e6bd 7192 6bbf 2039 13be
000001b0: 16f8 0b3f 8a34 773f 478f 483e fe0c a8be
000001c0: 3089 863d 12ac bcbe 7077 62bf f35b 8e3e
000001d0: 4a0a 6fbf c7fd 043e 9947 f73e 038d 27bf
000001e0: 1a94 213f c4f9 223e 9ff3 bc3d b174 fb3e
000001f0: 7135 6ebf 8401 7dbe 5227 98bf 17dc 623f
00000200: 1729 38bf 6c4e 6cbf e68c f33e 65f7 1fc0
00000210: ee50 4f3d f096 c63e 928d 403f 08e0 b13e
00000220: 6401 343e bc8a dc3e e680 edbf 306d edbd
00000230: 5123 cabf dbad d0bd 5401 853e c855 0bc0
00000240: fe2d 71be 8a2b 113e 4664 933d 4497 cbbe
00000250: 9ec3 223e 6173 ed3e ef40 c63e b59e 01bd
00000260: 7724 2cbe dd5e 9fbd 175c 0f3e 28e0 84be
00000270: bb1e 5a3f 7f5c 84be 36ed 18bf 250e 98bf
00000280: 5b2d 8dbf 9d05 ba3d 4f20 923e d2f3 e5be
00000290: 985f 053f 84dd c43e 0702 46bf d754 cc3e
000002a0: 155e 93bf 29cd 5a3d e4cb 40bf 8409 ed3e
000002b0: e4cf cf3e 87ff 9ebe faeb c8bf 0db3 1bbe
000002c0: e209 9cbd 0984 173f 21aa 25bf b7e7 5f3e
000002d0: d36a 51bf 9950 00bf b489 73bf d1d0 553c
000002e0: e621 65be 3036 9cbe bdfe 62bf 0623 4dbe
000002f0: 1142 4ebf 389d 833e 8700 653f f3ff 2fbe
00000300: 0df8 a83e 3840 8d3c db08 0ebe 9f2d 5dbf
00000310: 38e6 babe d586 9abe 61f2 34be e680 a33e
00000320: 61fa 61bf d6d0 ab3e 05de fcbe d4d0 d63e
00000330: 4928 5c3f 81a9 eb3e 69dd 52bf d5ba cabe
00000340: 94c0 873e 8d83 bf3e 0918 07c0 080a 27bf
00000350: 54c3 aebe 72ef d23e da42 8ebe 1386 383f
00000360: e5b1 a03d eca6 823d 30cb 843d 19eb 05bd
00000370: afcb 66bf 5041 a7be 3095 65bf 4596 a8be
00000380: bfa8 913e 915b b83e 3382 26bf e7ed 64be
00000390: 2664 4bbe 4f5d a03e cd13 aa3e 95ab c33e
000003a0: 2f92 26c0 0b5a 513f e80f 2d3e 8982 d4bf
000003b0: 64ea 60bf 246b c6bf 7ebb 343f 8325 1cc0
000003c0: f0b3 11bf df5e e5be 810c 4a3e 2bfc ba3d
000003d0: 97f2 e4be 4e95 18bf bfe8 e13d a092 06bf
000003e0: 3d89 3bbf 5293 5abf 96ab 923d b8e4 2f3e
000003f0: 14ba 9cbe 125c c6be 8619 5d3d e996 b2bf
0.28129703 -0.18479908 -0.40690976 0.025300242 -0.3758193 -0.35103807 0.19150372 -0.71839124
-0.11707683 -0.6844489 0.17415574 0.33681348 0.58951455 0.49943087 -0.16984709 -0.2737537
0.4614977 0.32945195 -0.80578613 -0.530682 -0.07996208 -1.278667 -0.13584 -0.22347586
0.57983595 0.17353727 -0.2382708 -0.24598543 -0.5406235 -0.30959243 -1.0574324 -0.9014517
1.0047648 0.1651703 -0.37709504 -1.1690801 0.6438802 0.098796226 0.4162777 -0.3265708
0.3804569 -0.3467688 0.26461637 -0.50323445 -1.2739872 0.29972592 -0.6592535 0.49482894
0.69273967 0.19740106 0.09239662 0.072507925 -0.63214535 -0.40728968 0.23380405 -0.26417693
0.06224524 -0.1854 0.054122396 0.16134042 0.17117982 -0.46622866 -0.2939455 0.016122693
0.50417364 -0.31826392 0.08630744 0.1602085 -0.4763024 -0.065477245 -0.026588753 0.5512969
-0.0022475002 0.2978247 0.36020625 -0.0351098 0.18054855 0.6739977 -0.061900124 -0.27820128
0.15401618 0.3740421 0.318476 0.059833713 0.5364223 -0.46726346 -0.33435592 0.5379901
0.06638108 0.0967818 -0.119831316 0.19011855 1.2462529 0.61480796 0.4364368 0.17743088
0.36919513 -0.018006416 0.42148992 -0.43674716 -0.15463747 -0.47540322 -0.26948422 0.3676039
0.3776529 -0.11255727 -0.92020327 -0.1437726 0.54675424 0.96564543 0.19585906 -0.32822412
0.06569135 -0.3685003 -0.884635 0.27804527 -0.93375075 0.12987433 0.48296812 -0.6544954
0.6311661 0.1591559 0.092261545 0.49112466 -0.93050295 -0.2470761 -1.1887 0.8861708
-0.719377 -0.9230716 0.47568434 -2.4994748 0.05061429 0.3878703 0.7521602 0.34741235
0.17578655 0.43074596 -1.8554962 -0.115930915 -1.5792028 -0.1018941 0.25977576 -2.1771107
-0.23552701 0.14176765 0.0719686 -0.39763844 0.15894935 0.4637709 0.38721415 -0.031645495
-0.16810785 -0.077817656 0.13999973 -0.25952268 0.8520314 -0.2585182 -0.59736955 -1.1879317
-1.1029466 0.09083102 0.28540275 -0.44912583 0.5209899 0.38450253 -0.77346843 0.39908478
-1.1513087 0.053418312 -0.7531111 0.46296322 0.40588295 -0.31054327 -1.5697014 -0.15205021
-0.076190725 0.59185845 -0.6471272 0.21865736 -0.81803626 -0.5012298 -0.95131993 0.013050274
-0.22376212 -0.30510092 -0.8866995 -0.20032892 -0.8056956 0.25705886 0.8945393 -0.1718748
0.33001748 0.017242536 -0.13870566 -0.8639774 -0.36503768 -0.30180994 -0.17670585 0.3193428
-0.8827267 0.33557767 -0.49388137 0.41956198 0.8599897 0.4602776 -0.82369095 -0.39595667
0.26514113 0.37405053 -2.110842 -0.6524968 -0.341334 0.41198307 -0.2778538 0.7207958
0.07846431 0.06379494 0.064840674 -0.03269491 -0.90154546 -0.32667017 -0.8968077 -0.32927147
0.28449056 0.3600736 -0.6504242 -0.22356378 -0.19862422 0.3132119 0.33218232 0.38216844
-2.6026723 0.8177802 0.16900599 -1.6602336 -0.8785765 -1.5501447 0.7059859 -2.4397895
-0.5691519 -0.44798943 0.19731332 0.091301285 -0.4471633 -0.5960282 0.11030721 -0.5256748
-0.73256284 -0.8538104 0.07161634 0.17177093 -0.30610716 -0.3874212 0.05397942 -1.3952304

lin_in1.bias f4 [48]
00000000: 8b86 46be 8f92 8ebe 230e afbe ec89 92bd
00000010: 8b32 07bf 5153 65be 2962 a4be b18e 6dbd
00000020: d0a2 a7be d13e bd3e 1102 36be 9dac 7bbe
00000030: 4f8d c7be 7b2a 56be 4e2d cabc dab2 b0bd
00000040: 5141 91be 2a8b 07bf fb52 05bc f478 03bf
00000050: c8e3 24be 9ffb d7bd 868e 3abe 2c05 d8be
00000060: 3af3 1abe 3d5f dcbd dd01 edbd 2a94 10be
00000070: ef8c 9fbe b27d 86bd 0f92 74be 136b a3be
00000080: bafe 93be 199a ecbe 716d bbbd 6c28 c6be
00000090: dde7 41be 7afb 3f3d d6ab 413e ca59 303d
000000a0: 8691 febc 97d7 febe f185 d73d 07c1 64bd
000000b0: db75 543e d905 a3be 738b fabd ffa1 a2bd
-0.19387262 -0.2784619 -0.34190473 -0.07155213 -0.528115 -0.22395064 -0.3210614 -0.05799741
-0.32741404 0.36961988 -0.17774226 -0.24577565 -0.38974997 -0.20914643 -0.024679806 -0.08627863
-0.28370145 -0.5294672 -0.00813746 -0.51356435 -0.16102517 -0.1054604 -0.18218431 -0.42191446
-0.15131846 -0.10760353 -0.11572621 -0.1411902 -0.3116221 -0.06566943 -0.23883842 -0.3191763
-0.28905278 -0.46211317 -0.09151734 -0.38702714 -0.18936105 0.046870686 0.18913206 0.04305438
-0.03107525 -0.49773857 0.10523594 -0.055848148 0.20748083 -0.318404 -0.12233629 -0.079410546

lin_in2.weight f4 [48, 48]
00000000: c728 babd 2cd5 9b3e d009 493e 1571 3abe
00000010: 7082 413f 1caf 5f3e f1ff 753e f5b1 a3bd
00000020: 268d ddbd 5dca 253e 690c 5fbe a8b6 a93e
00000030: b18a ef3d bb80 9cbe 069c e73d e698 21bf
00000040: 47cb d43e dafd df3e a10c 073f c79c b93e
00000050: b8d0 b03d 541f 0dc0 5b5b 9ebe 1d5f 9f3e
00000060: c192 99bf 182a 953e 031b 49bf 025d 563e
00000070: f0e6 3c3f aee1 e0be dd18 3fbf abf5 a5bf
00000080: 24a2 493e 09ba ffbd 547f 29bd 3ad6 6c3e
00000090: 2a10 da3d 7893 db3d 04d5 1a3e a7b3 5e3c
000000a0: f5e8 a8bd 31c0 bb3d 8663 213f 2303 15c0
000000b0: 3b62 81be 566b 04bf 6a88 423f d9ae aa3e
000000c0: 50a6 f2be 25a7 3dbf ddf7 92be 90d2 573f
000000d0: 8621 09bf f2ca 3dbf 3439 2c3f 7ce6 8d3d
000000e0: a92f 0e3f 272c 17bf 85eb 81be 4dc7 c73d
000000f0: db5b 9ebe bbb4 d5bd 97fc 43bd db2e 243f
00000100: 47ad 0fc0 b140 c6be cd4f 35be 1d49 00c0
00000110: 3d32 47bf 52fb 95be 7741 c23e 70e7 4e3e
00000120: 4688 593e eb1a 77be 1f8f aabe 5f37 06bf
00000130: c36f d7be 211b 913d 377c 89bf 1237 853e
00000140: 2bfd cebc c32b 123f 59eb eabe e669 c6be
00000150: 57a3 7a3c 2979 ddbd ebd3 173f dc2f 1a3f
00000160: 9c12 7f3d e3e8 663f 2bc8 7dbe 393a acbf
00000170: f710 a6bf 8f84 0ebf 1e2d a73e d95f 473e
00000180: b8a3 60bc bdbe ddbb 5c29 b53b 0e24 99bb
00000190: 970a 4cbc c90e d13b 912e 9abb b28e 30bc
000001a0: 549c 6cbc 2b58 6bbc 6b32 66bb b4ce 54bc
000001b0: 6127 16bc 7462 43bb 6692 8bbc aa9f a0bc
000001c0: f0ed 66bc c96d ffbb ba66 95bc 746a 0f3a
000001d0: 8826 b93b 3909 cabc 8478 ebbb 3f4b 2c3b
000001e0: 729f 83bc 1336 69bc f640 39bc 8d51 b7bc
000001f0: 3bc9 86bb 2bcf c4bc 7281 aabb a85a 6db9
00000200: 939e 323a 38b5 80bc e00a 7bbc 2c6e 3ab9
00000210: afa3 dbbc 79aa 7cbc 0cf2 abbc 28ff aabc
00000220: 796b 89bc a3de 16bc 439a 32bc e2f2 4fbc
00000230: d689 89bc b007 96bc eb45 d8bb ed9e d23b
00000240: c012 31bf f286 213e dc09 f13e 669e bd3e
00000250: 5cb6 bcbe 3963 cfbd bb91 9b3e 2c06 f5be
00000260: 78b4 a23e f940 44bf 718d b73e f930 283e
00000270: b727 163e 0839 693c 614d 9e3e c3e1 c1bc
00000280: 4ed2 a43e f8d5 3dbd b881 da3e e7de 923b
00000290: 9ece b3bd 5d44 133f 0760 f43e e107 2a3e
000002a0: 1ffa 9a3e 998d aabd 9bbb dc3c aef5 a83c
000002b0: 319e 893e 5a3c 0b3f 46fe 64be 96e5 aebe
000002c0: 4d20 80bd d586 e0bd 4e7b 8b3e eff3 dcbd
000002d0: d493 0bbe 3c51 64be 7500 0bbe dd39 38bf
000002e0: 26e5 cbbc 9a90 463d 21fb 753e 615f 03be
000002f0: d90e b83d ea69 51bc 53fc 6abf 91e1 043e
00000300: 6a24 16bf 8161 a0bf 7173 f2bd 8693 58bf
00000310: 8ad8 05bf e97c c6be 5171 023f a3e2 e33e
00000320: 38a5 8ebf 573b 42c0 0e6d aabf 2b2f 033f
00000330: 281f bebe de72 72bf c2c6 34bf f30b edbe
00000340: 9187 dd3e 8293 b73c 3ed0 0a3f b829 033e
00000350: ae70 8c3e d2a8 fdbe 511d a2be a058 54be
00000360: d411 b73d 81df 4b3e f874 04bf 6938 c5be
00000370: 1d6a adbe aef3 5bbf 2b32 63be cfa1 503f
00000380: aa37 c83d 23f9 943e 8e07 e5be 34f7 7b3f
00000390: 8f29 683e 0da5 f6be 3e38 bfbd 4ae5 9f3d
000003a0: f23b 7fbf 51d2 523e 32f1 81bd 9104 65bf
000003b0: 5c2c 8cbf bdc4 06bf 6237 a93f 7d31 73be
000003c0: 1b51 313f c96b debe 7fb5 1b3f ad4a 45bf
000003d0: 3d9b 263f 2111 8dbf 2e14 373e da1e 58bf
000003e0: dee8 62bf f1dd 9e3e 7486 da3e d03c 263f
000003f0: 3c71 1d3f 13cd 00bd 06b6 2e3f 4f88 d73e
-0.09089809 0.30436075 0.1963265 -0.182072 0.75589657 0.21844143 0.24023415 -0.07992927
-0.108179376 0.16190477 -0.21782078 0.33147168 0.11696375 -0.30566964 0.11309056 -0.6312393
0.41561338 0.4374836 0.52753645 0.36252424 0.0863356 -2.205037 -0.30929074 0.31127253
-1.1997911 0.29133677 -0.7855684 0.20933917 0.7378988 -0.4392218 -0.74647313 -1.2965597
0.19690758 -0.12486655 -0.041381195 0.23128596 0.10647614 0.10721487 0.15120322 0.013592637
-0.08247558 0.09167517 0.63042486 -2.3283165 -0.25270256 -0.5172628 0.759894 0.33336523
-0.4739251 -0.7408317 -0.2870473 0.8430567 -0.5356678 -0.74137795 0.67274785 0.06928727
0.55541474 -0.59051746 -0.25375 0.097548105 -0.30929455 -0.10434862 -0.04784831 0.64133996
-2.244951 -0.3872123 -0.17706223 -2.0044625 -0.7781103 -0.29293305 0.3794057 0.20205474
0.2124339 -0.24131362 -0.33312318 -0.5242824 -0.42077455 0.070852526 -1.0741032 0.26018578
-0.025267204 0.57098025 -0.4588268 -0.3875267 0.015297732 -0.10814125 0.59307736 0.6022928
0.062273607 0.90199107 -0.2478339 -1.3455268 -1.2973927 -0.5567102 0.3265161 0.19470157
-0.013710909 -0.0067671225 0.005528612 -0.0046734875 -0.012453697 0.0063799364 -0.004705258 -0.010776209
-0.014441568 -0.014364283 -0.0035125266 -0.012988735 -0.009164662 -0.0029813321 -0.017037582 -0.019607384
-0.014094815 -0.00779507 -0.01823746 0.000547088 0.0056503452 -0.0246626 -0.0071859974 0.0026289967
-0.01606724 -0.014234084 -0.011306992 -0.022377754 -0.004113344 -0.024024567 -0.0052034194 -0.00022635853
0.00068137905 -0.015711412 -0.015322417 -0.00017779385 -0.026811449 -0.015421503 -0.02098944 -0.020873621
-0.01677488 -0.009208354 -0.010901037 -0.012692185 -0.016789358 -0.018314213 -0.0066001317 0.006427637
-0.69169235 0.15774134 0.47077835 0.3703491 -0.3685788 -0.10126347 0.3038462 -0.4785627
0.31778312 -0.7666164 0.358501 0.16424932 0.14663588 0.014234789 0.3091841 -0.023667222
0.321917 -0.046346635 0.42677093 0.0044821384 -0.087796435 0.5752619 0.47729513 0.16604568
0.30268952 -0.08327789 0.026944926 0.020624962 0.26878503 0.54388964 -0.22362623 -0.34159535
-0.06256161 -0.10963217 0.27242512 -0.10788714 -0.1363061 -0.22296613 -0.13574393 -0.7196329
-0.02488954 0.048477747 0.2402158 -0.12829353 0.08987207 -0.0127816 -0.91791266 0.12976672
-0.58649313 -1.2529756 -0.11838425 -0.846001 -0.5228354 -0.38767174 0.5095416 0.44508848
-1.1144171 -3.0348718 -1.3314531 0.5124385 -0.37133145 -0.94706523 -0.7061578 -0.4629818
0.4326749 0.022409204 0.54224 0.12808883 0.27429718 -0.49542862 -0.31662992 -0.20736933
0.08938947 0.19909479 -0.5174098 -0.385196 -0.3387002 -0.859187 -0.22187106 0.814969
0.09776242 0.29096326 -0.44732326 0.9842408 0.22672103 -0.481728 -0.09336899 0.07807405
-0.99700844 0.20588042 -0.063448325 -0.8946009 -1.0951037 -0.5264395 1.3220026 -0.23749347
0.6926438 -0.4344161 0.60823816 -0.7706707 0.65080625 -1.1020852 0.17878792 -0.84422076
-0.8863658 0.31028703 0.42680705 0.6493654 0.61500907 -0.031445574 0.68246496 0.42096183

lin_in2.bias f4 [48]
00000000: 7e3a 0bbf 9b06 73be 7efe 11bd 49e1 783e
00000010: 7b8c e3bd 2143 52bf 48c5 85be 93af 53be
00000020: ee97 d5bc 1105 e0bc e56b 88bc 6223 11bf
00000030: d615 fa3e e372 ea3d 567d 0a3e baeb 8d3d
00000040: 05ad 0bbf 2e6a 363e da9b a6be 673b 97be
00000050: 684e bf3d c6de 7bbe 4b3f abbe 2575 6c3d
00000060: c8f7 793d 433d bfbe 7653 d03e 7e8a d83d
00000070: 72fd 44bd 15d3 053e 780e 883c 3b9b 2f37
00000080: 8988 0ebd 37c4 0dbe 5a60 0abe 6934 13bd
00000090: 3257 2bbd b07e e63d 62d1 e2be 6b34 40be
000000a0: 14e8 8fbe 866f f9bd 81d1 c83d d343 4dbe
000000b0: b3ed babd 8d06 cdbe 9c99 56be 2231 843e
-0.54386127 -0.23732989 -0.035643093 0.2430469 -0.11110779 -0.8213368 -0.26127076 -0.20672445
-0.026073422 -0.027346166 -0.01665301 -0.56694615 0.48844784 0.11447694 0.13524374 0.06929727
-0.5456088 0.17813942 -0.3254078 -0.29537508 0.09341127 -0.245967 -0.33446726 0.057728905
0.06102732 -0.37351426 0.40688676 0.1057329 -0.048093267 0.13068803 0.016608462 1.0466955e-05
-0.03479818 -0.13844381 -0.13513318 -0.035938654 -0.041831203 0.112546325 -0.4430037 -0.18769996
-0.2810675 -0.121794745 0.09805585 -0.20045404 -0.09127369 -0.4004406 -0.20957035 0.25818735

convs.0.mlp_msg.0.weight f4 [48, 102]
00000000: 1aac 0ebf c0a1 81be 85cd 23bc baaa 98be
00000010: 266d c23d 1f34 6d3e 87ea 9d3e 7177 f03e
00000020: 1ab2 843b ac46 9d3c e5fa 9b3b aa24 d2be
00000030: 7be4 a93d 82ce 563c 743b a23e 3ebe 813d
00000040: fc55 a1be d465 383f 0882 943f 6553 173e
00000050: 0085 163e b18d d1be aca4 f6be 88e8 873d
00000060: f318 153f 716f 0c3f 0c71 02bc edbd a53d
00000070: a614 223c df2b 2abf 4ab5 7d3d 7ae2 ba3e
00000080: e39a 76bf a9a0 2d3e 1471 843c 5e8e 64be
00000090: 50c3 04bf 2a53 01be 0956 863e 201e 96be
000000a0: 090e 653e 8a0c 723f 4b3b 1cbd d7a9 6abf
000000b0: 9b6a 763e 677c fd3e 54e6 c83d 6d63 1cba
000000c0: a457 4dbe 03cd 83bd e034 613b aafa 55bd
000000d0: 788b 2f3f 097b 7abf 3ceb ffbe 02fb 6cbf
000000e0: 8472 25bc 4e96 c9ba 3ce4 243c 5240 aa3d
000000f0: 1b91 8dbe f4b5 853f 1dd4 8bbe 76c5 76bf
00000100: 9c23 643e 8360 96bf b307 8abd e6af 51bc
00000110: 10fb 7bbd bb1f 2b3f 2476 023e bd33 0f3e
00000120: 2f87 013f d018 18be 662d 29bf 69e2 7a3f
00000130: ad17 403d b458 233e e043 49bd 49f6 013f
00000140: a013 823e f5ca 14be ff11 67bd 7331 10bf
00000150: 4c87 08bf 3726 a2bf 184f 8dbe e11e ec3e
00000160: 87c3 58be fe10 21bf ef2b 41be 4abd 503f
00000170: 7806 303f 87b8 a73d ea3e 763e 4c8d 4b3f
00000180: cefe 05bf 4a06 0d3d bbaf 723d 15f8 a3be
00000190: 3a85 883e fde6 78bf 6fa3 3bbc b284 a53b
000001a0: b2ef ae3b 116b 61bc f6ce 153b c7e6 823b
000001b0: 2e08 15bc e91e 743b 1e3a 783a 1088 85bb
000001c0: c4f8 073b 56f4 e7ba b669 d0bc 073d 8e3b
000001d0: 5660 ebbb bf0c e4bb 5270 f43a 1546 513b
000001e0: dc85 863b a40e 69bb 1448 9cbb 0bdd a13b
000001f0: f2d4 0a3c ff32 3cbc 08e8 1a3b 4c40 cfbb
00000200: 9d5c cabb fd3f 81bc 6e9e 59bc a6ff 04bc
00000210: ea71 42bc d086 49bc 1433 21bc 056b afbc
00000220: 9a29 47ba 8258 edbb 48b1 00bc 91b0 96ba
00000230: 3215 83bb 4cef 39bc f4a7 85bc 755b 0abc
00000240: 9312 3dbb 2506 adbc d08f 2ebb 2ddb adbc
00000250: de2e 723b b49c d73a 23e6 04bb c76c a4bc
00000260: f801 77bb 4ee2 9fbc 619d 6f3b 09a6 373c
00000270: 706f 5bbc 7dd7 033b 901b 003b 4da2 5abb
00000280: 3728 5c3b 4dd1 98bc 26db e0bb 7a87 05bb
00000290: 9a96 9abc 883a d6bb c26b 96bb bae6 99bb
000002a0: 915c 7e3b f5d2 bfba 8e2d d4bc 1d6d d2bb
000002b0: f0ec 9abc e7ac 88bb 93a7 3f39 d1d6 13bb
000002c0: 66a0 1e3b 9f24 9bbc baef 7bbc b7ed 77bc
000002d0: 44c8 a1bc e3ca aebc f1cb 76bb db19 53bc
000002e0: 9ba6 943b 87f4 39bc 9956 cc3b 9183 00bb
000002f0: 99e4 d5ba 8193 17bc d9ba 79bc 637f f0bb
00000300: 5e28 973a 6a39 1abc 9a19 853b 9688 7abc
00000310: a107 89bb 34ae 1fbb 4426 93bb 7207 1bbb
00000320: d40e 9fbb 6840 c1bb f220 32bc b14b cebb
00000330: 4f5d 883d ebaf d93e 3964 01bb f0b1 1d3d
00000340: 5eec 143e 7776 25bf c075 673d 64eb 1fbf
00000350: 794b 4dbc c335 02bd da73 2dbc a201 203f
00000360: 39cb 28bf d678 d23e f566 923e ea39 0dbf
00000370: 88a3 8c39 55cf 4d3e 9696 0bbf 27dd f0be
00000380: a55b 323d 5a35 e6bd 1dd5 7f3e c7eb 26bf
00000390: d005 743e a883 873e 6465 5d3d fad6 9abd
000003a0: e51e 763e 1ba9 aabf dc72 c53e 0a7b 31bf
000003b0: 4afe 26bf 436e f33d 8b3f 563f 07eb 5bbe
000003c0: ec96 e9be df6d 09bf deab 96be 3162 1ebe
000003d0: cebe fdbe d44a c7be db6d 40bf 7b13 bcbd
000003e0: 7341 b2bd a417 b13d 1dc0 ac3e d142 fc3c
000003f0: e2d5 edbe b4cd 0d3f bc6f 8f3c 9f97 723e
-0.55731356 -0.25318718 -0.00999773 -0.29817754 0.09493475 0.23164414 0.30842993 0.46966127
0.0040495517 0.019198738 0.0047601336 -0.41043597 0.08295532 0.013110759 0.31685984 0.06335114
-0.31510913 0.7203038 1.1602182 0.14777906 0.14699173 -0.40928414 -0.4817251 0.06636149
0.58241194 0.54857546 -0.007961523 0.08092866 0.009892618 -0.6647319 0.06194047 0.36500913
-0.9633009 0.16955818 0.016167201 -0.22319934 -0.51860523 -0.12629381 0.26237515 -0.2931986
0.22368635 0.94550383 -0.038142484 -0.91665405 0.24064104 0.49508974 0.098095566 -0.00059657433
-0.20052963 -0.06435587 0.0034363791 -0.052241005 0.6857219 -0.97843987 -0.49984157 -0.9257051
-0.010098103 -0.0015379877 0.010064181 0.083130494 -0.2764977 1.0446153 -0.27310267 -0.9639505
0.22279209 -1.1748203 -0.0673975 -0.012798285 -0.06151873 0.6684529 0.1274038 0.1398458
0.505969 -0.14853215 -0.660849 0.98001724 0.04689758 0.15951806 -0.049136996 0.50766426
0.25405598 -0.14530547 -0.056413647 -0.56325454 -0.53331447 -1.2667912 -0.27599406 0.4611731
-0.21168338 -0.62916553 -0.18864416 0.8153883 0.6875987 0.08189493 0.24047437 0.79512477
-0.52341926 0.034429826 0.05924962 -0.3202521 0.26664144 -0.9722746 -0.01145254 0.005051219
0.0053386325 -0.013758437 0.0022858954 0.003994796 -0.0090961885 0.003724987 0.00094691094 -0.004075058
0.002074764 -0.0017696719 -0.025441032 0.004340771 -0.007183115 -0.0069595273 0.0018649197 0.0031932641
0.0041053127 -0.0035561705 -0.0047693346 0.0049396805 0.008473622 -0.011486768 0.0023636837 -0.0063248035
-0.006175591 -0.015777582 -0.0132824015 -0.008117592 -0.01186798 -0.012300208 -0.009838838 -0.021413336
-0.00075974467 -0.007243217 -0.007854767 -0.0011496713 -0.0040003294 -0.011348557 -0.016315438 -0.008444657
-0.0028850182 -0.021121094 -0.0026636012 -0.021222675 0.0036954205 0.0016449899 -0.0020278774 -0.0200714
-0.0037690382 -0.01951709 0.003656231 0.011209019 -0.013393268 0.0020117455 0.0019547679 -0.00333609
0.0033593306 -0.01865449 -0.006862062 -0.002037494 -0.01887064 -0.006537739 -0.0045904825 -0.004696694
0.0038812498 -0.0014635014 -0.025900628 -0.0064216987 -0.018911809 -0.004171002 0.00018277606 -0.002255846
0.0024204492 -0.01893836 -0.0153769795 -0.015132359 -0.019748814 -0.021336978 -0.003765818 -0.012884582
0.0045364625 -0.011349804 0.006235909 -0.001960967 -0.0016318738 -0.009251476 -0.015242302 -0.0073394044
0.0011532416 -0.009413103 0.00406189 -0.015291354 -0.0041818176 -0.0024365308 -0.0044906456 -0.002365556
-0.0048540626 -0.0058975704 -0.010872113 -0.006295644 0.06658422 0.42517027 -0.0019743575 0.038499773
0.14543292 -0.6463389 0.05650878 -0.6246855 -0.012530201 -0.031789552 -0.010586703 0.6250249
-0.65935093 0.41107816 0.28594175 -0.55166495 0.0002682472 0.20098622 -0.5452665 -0.47043726
0.04354443 -0.11240645 0.2498364 -0.6520352 0.23830342 0.26467633 0.05405177 -0.07560535
0.24035223 -1.3332857 0.38564193 -0.6932837 -0.65231764 0.11886265 0.8369071 -0.21476375
-0.45622957 -0.53683275 -0.29428 -0.15467145 -0.49559635 -0.38924277 -0.75167626 -0.09183403
-0.0870389 0.08647087 0.3374032 0.03079358 -0.46452242 0.55392003 0.017509334 0.23690651

convs.0.mlp_msg.0.bias f4 [48]
00000000: 1b67 86be 8ada 17bd d0e0 63bd af17 62bc
00000010: 6b74 06be 1e48 babe 40f0 9dbd cc59 debe
00000020: 2d3d 82be a439 b5bd 9019 83be 3ee2 c6bd
00000030: 2dec 6f3d 9def 0fbf 7905 76bd 28ed dbbe
00000040: 7966 0c3d efa8 243e 440f 85be 4264 adbc
00000050: 54b6 04bb 2071 1ebd 26f5 d33c 8856 7ebe
00000060: bd0d 183e 2263 27bc 8124 e4bd 75fb 9ebe
00000070: fdb2 9abe b259 09bd 19bd 0a3e ff94 2bbe
00000080: 03b2 44be 9b81 96bd 7271 56be 1cd6 d1bb
00000090: 5d7f 31bd cc50 b1bd c0d8 51be 9271 ecbe
000000a0: d537 053e e5c8 f8bc 738a 7e3d d4f6 5cbe
000000b0: 20d4 f53d 9417 abbd e88b b0bc 0b03 5b3c
-0.26250538 -0.03707365 -0.05563432 -0.013799592 -0.13130347 -0.36383146 -0.0771184 -0.43427885
-0.25437298 -0.08848885 -0.2560544 -0.09711121 0.058574844 -0.56224996 -0.060063813 -0.42954373
0.034277413 0.16080068 -0.2598821 -0.02116597 -0.0020250278 -0.038682103 0.025873732 -0.24837697
0.1484899 -0.010216506 -0.11139775 -0.3105122 -0.30214682 -0.033532806 0.13548698 -0.16756056
-0.19208531 -0.07348939 -0.20941713 -0.0064036977 -0.043334354 -0.08657989 -0.2049284 -0.46180397
0.1300958 -0.030369231 0.062143754 -0.21578532 0.1200335 -0.083541065 -0.021551087 0.013367425

convs.0.mlp_msg.2.weight f4 [48, 48]
00000000: 5189 143d b47a 0fba eb8c c1be 0533 883b
00000010: 2e86 93be 0011 1a3f 4b0e 04bf 289e 463f
00000020: 6cf0 8abe c5f1 19bf 491e 693e e290 103c
00000030: 7270 66bd cc2e 1f3e f61a bfba 1da1 86be
00000040: d66e 9ebf f61b 9dbf 633c 15bf 3ce4 24bc
00000050: 2915 e93e 32cb b7bd 050d 73bf 41a9 743e
00000060: 5ecd b4be 17fd 893b e717 1abf 9247 69bf
00000070: ebdb b6bf f578 8fbb 81db 9abf 1142 0d3f
00000080: 5be7 343e 08a1 28bf b439 433f 97a0 31bf
00000090: daa1 a739 3762 9ebf bd9a 8fbe 87d9 8abf
000000a0: 16de 4c3f 596e 4dbe 3dc6 25bf 8f36 a7be
000000b0: 02cb 81bf a852 78bf 7df1 39bf bdf5 cd3e
000000c0: 3160 84bc 98a4 ee3b ca29 883b d087 eebb
000000d0: 68cb f0bb 7c2b 2dbc 539b a7bb 2a19 473b
000000e0: 41a3 40bc e23b c5bb ca4f 803b f3a1 0c3b
000000f0: cb80 65bb 14d8 123c d99f bebb 5d13 8abb
00000100: 7015 ffbb f261 9fbc a8ed 22bc e410 d03b
00000110: ff73 0f3b be02 e4bb 0cd9 66bc 98bd d3bc
00000120: 2b8d 89bc ff56 a7bb bb6c 0d3b c816 81bb
00000130: e7b4 88bb 24bd 943b 7485 a2bc 7681 ec3b
00000140: 2da5 74ba c90f 72bc aacb 46bb 3c55 c9bb
00000150: 2bcb b4ba eeed 8ebc 38b5 6a3b 561a b3bb
00000160: bcb7 5bbb cfc6 80bb d29b 30bc d275 c5bb
00000170: 7b93 6abc adeb afbb e4e4 9cbc c73d 86bb
00000180: fbd6 0c3e 7640 883b d1b0 22bf bee6 6abb
00000190: 28bc 79bf d2d3 ed3e b503 0f3f 6d18 77bb
000001a0: 8936 cebe 638d 5fbe 3a8c e23c 9e4d 97bb
000001b0: 4cf4 37bf 6021 ac3d 2f9c 813c 4c34 8fbe
000001c0: e1b8 8dbe c69e 98be 3fa5 153f 5621 b73b
000001d0: 1283 c23d f2b5 023f 4741 a7bf 2b51 39bf
000001e0: 2939 c3bd 0752 1cb8 d192 15be 22ca a4be
000001f0: 3a58 563d 8f89 843b 2aa6 19be 4ab2 2a3f
00000200: afba 60bf b606 debe 719e 9c3e 28e2 54be
00000210: 476c 45b9 3531 5d3e a199 493e 37af 2f3e
00000220: 679b 13be 318f 9c3d c92c 45bf 9632 6cbf
00000230: f533 21bf 9c7a 82bd c405 093f 6d68 08bf
00000240: 4ffc 86ba 2609 d83a 3580 55bc 60bc 8e3b
00000250: 8634 98bb c128 61bc d4b4 05bd 69fe 013c
00000260: 2a6a d4bb 0164 ccba 7e6b c8bb c682 14bc
00000270: 3ac9 35bc ec54 88bb 3b7b e33a 752f bf3b
00000280: 54e4 b1bb fda4 01bd aec8 79bb ad42 d3bb
00000290: 9db2 02bd f046 153b 3d3a 3cbc b687 17bc
000002a0: 700b 92bb b12f 4abb 3bcf 18bc 24fe 00bd
000002b0: 89b0 31bc 0cda b8bb 54d9 07bd 94d5 fcbb
000002c0: f3c6 a0ba 33f0 39bc 7f95 14bb 2666 80bc
000002d0: 8b88 59bb ff67 13bd aaf3 18bc 0f97 c63a
000002e0: bb1c 5aba 9343 d0bb c205 43bc 398d 83bb
000002f0: e470 46bc fbbd 78bb a8fd 04bd aec0 613b
00000300: 2bfb a73d 426f b539 4dd3 3cbd e436 353b
00000310: e6fa 473e 4a51 99bf 78f9 593e a6cb c3bd
00000320: d7c1 f2bf 4a56 a43e e40f 90be ccf1 ac3b
00000330: ab62 613d 3143 a9bf 592a c0bb d342 01bf
00000340: 5369 1ebf 29d8 4e3e 3010 5cbe 2834 913b
00000350: fbc4 ba3e a580 9fbe 0a21 33be 04e3 ea3e
00000360: 5cdd 1cbf c363 0dbc 562b a83e 4100 743e
00000370: 9242 5ebe d626 5b3a 2e4d 143c 7b7b a43e
00000380: c565 543b 1c60 d23e 0cfc 02be 5e68 06be
00000390: 909b 17bc cf7b 5fbe 50da 383e e897 103f
000003a0: 921f 5d3e 093e f43d 0580 cfbf 543a 9bbd
000003b0: 41c8 b6bf 9d2d 38bf 0dde e13d acc7 babf
000003c0: 34ce 303f 5f8e 833b b62b 49be 22b2 a03b
000003d0: c503 d13e 77b2 2dbe 0f81 11bf 5409 943e
000003e0: df52 853e 5cdf 0dbf f3f8 68bf bb3c b63b
000003f0: 5daf 02c0 9492 03bf e628 d4bb 318c f13e
0.036263768 -0.0005473301 -0.37802824 0.0041564726 -0.28813308 0.6018219 -0.5158431 0.7758508
-0.27136552 -0.60134536 0.22765459 0.008823605 -0.05625958 0.15545195 -0.0014580179 -0.26294795
-1.2377574 -1.2274158 -0.5829527 -0.010064181 0.45523956 -0.08974303 -0.9494174 0.2389269
-0.35312933 0.004211079 -0.6019272 -0.9112483 -1.4285864 -0.004378433 -1.2098237 0.55178934
0.1766638 -0.65870714 0.76259923 -0.69385666 0.0003197331 -1.2373723 -0.28047743 -1.0847634
0.80026376 -0.20061626 -0.6475561 -0.32658812 -1.0140078 -0.97001123 -0.72634107 0.40226546
-0.016159149 0.0072828047 0.0041553723 -0.0072793737 -0.0073484667 -0.0105694495 -0.0051149516 0.003037999
-0.011757673 -0.0060191015 0.0039157616 0.0021458834 -0.0035019394 0.00896265 -0.005817395 -0.004213734
-0.007784538 -0.019455884 -0.009944357 0.00634967 0.0021889207 -0.0069583347 -0.014089834 -0.025847241
-0.016790947 -0.0051068063 0.00215797 -0.0039394833 -0.004171956 0.004539149 -0.019839026 0.0072175814
-0.00093324744 -0.014774271 -0.0030333796 -0.006144194 -0.0013793459 -0.017447438 0.0035813581 -0.005465786
-0.0033526262 -0.00392995 -0.010779338 -0.006026008 -0.014317389 -0.005368671 -0.019152112 -0.00409672
0.13753884 0.004158075 -0.6355105 -0.00358431 -0.9755273 0.4645067 0.5586503 -0.0037703768
-0.40275982 -0.21831279 0.027654756 -0.004617407 -0.7185714 0.08404803 0.015821544 -0.27969587
-0.27680114 -0.29808635 0.5845527 0.0055886908 0.09497656 0.51058877 -1.3066796 -0.7238948
-0.09532387 -3.7269692e-05 -0.14606787 -0.32185465 0.052330233 0.0040447186 -0.15004793 0.666783
-0.87784857 -0.43364495 0.3058963 -0.20789397 -0.0001882772 0.21600802 0.19687511 0.17156683
-0.1441475 0.07644499 -0.7702146 -0.9226469 -0.62969905 -0.06371042 0.5352442 -0.5328434
-0.0010298582 0.0016482219 -0.013031055 0.004355952 -0.004644933 -0.013742627 -0.032643154 0.007934191
-0.0064823823 -0.0015593768 -0.0061163297 -0.009064382 -0.011095339 -0.004160514 0.0017355451 0.0058345147
-0.00542883 -0.031651486 -0.0038114 -0.0064471574 -0.03190862 0.0022777878 -0.011488494 -0.009248665
-0.00445693 -0.003085118 -0.009326751 -0.031492367 -0.010845312 -0.0056412276 -0.033166245 -0.00771589
-0.0012266323 -0.011348772 -0.0022672114 -0.015673708 -0.0033192958 -0.03598785 -0.009335438 0.001515122
-0.0008320321 -0.0063557117 -0.011903228 -0.004014638 -0.012111876 -0.0037955034 -0.032468468 0.0034447121
0.08202203 0.00034605904 -0.04609995 0.0027651126 0.19529304 -1.1977932 0.21286571 -0.09560327
-1.8965405 0.32097083 -0.28137124 0.005277848 0.055025738 -1.322363 -0.0058644232 -0.5049259
-0.6187946 0.20199646 -0.2149055 0.0044312663 0.3647841 -0.31152835 -0.17493072 0.45876324
-0.6127527 -0.008629742 0.32845563 0.23828222 -0.21705082 0.0008359974 0.009051604 0.32125458
0.0032409292 0.4108895 -0.12791461 -0.1312575 -0.009253398 -0.21824573 0.1805203 0.5648179
0.21594074 0.11925895 -1.6210943 -0.075794846 -1.4279863 -0.719446 0.11028681 -1.4592185
0.6906464 0.0040147747 -0.1964558 0.0049040476 0.40823188 -0.1696261 -0.5683755 0.28913367
0.26039788 -0.55418944 -0.91004866 0.005561439 -2.0419533 -0.51395535 -0.006474602 0.4717727

convs.0.mlp_msg.2.bias f4 [48]
00000000: 3cb2 38bf 9aae 13bd 1e68 d9be aca1 39bd
00000010: 7564 43bf bab1 40bf 7a00 67be 7b42 59bd
00000020: c388 fe3d 3c32 89bd e7e6 943d 66b7 bdbe
00000030: f0ad d83d f456 d9bd 127d 05bf ffac 923e
00000040: d163 90bd d67f d1bd 9693 aebe d2a8 acbd
00000050: 9307 0ebd 7282 7fbd 08d4 05bd 1ac9 eebe
00000060: 0863 71bd 765a 2abf 4d50 2fbd f948 1abd
00000070: 6e7b 64bd 5009 e23c a8ba 6cbf d0ad a8bd
00000080: d0bf afbc a0d4 e5be 4fed e7be b551 3abf
00000090: dd42 033e ba11 0abd 3c24 aabe adeb 23be
000000a0: 6bde 06bd cd30 99bc c533 c1be 3f95 a9bd
000000b0: e4f1 37bf 5fd0 06bf 3d61 5c3d bfb8 fe3d
-0.72146964 -0.036055185 -0.42462248 -0.045320198 -0.7632516 -0.7527119 -0.22558776 -0.053041916
0.12428429 -0.066990346 0.072706036 -0.37053984 0.10580051 -0.10612288 -0.5214397 0.2864761
-0.070502885 -0.10229461 -0.34096974 -0.084306374 -0.034675192 -0.06238026 -0.032672912 -0.46637803
-0.058932334 -0.6654428 -0.04280119 -0.03766725 -0.055781774 0.027592331 -0.92472315 -0.08236277
-0.021453768 -0.44888783 -0.4529824 -0.72780925 0.12818475 -0.03370831 -0.3323077 -0.16007872
-0.032926958 -0.018700028 -0.3773481 -0.082804196 -0.7185347 -0.526617 0.05380367 0.12437581

convs.0.mlp_upd.0.weight f4 [48, 96]
00000000: a5f7 363f 84f9 ea3e b758 243b 6af7 0fbf
00000010: 7728 9ebe d08a bc3e a609 553f 5e8a 973e
00000020: 4845 1cbb 8898 123d 1348 02bc 9e78 febe
00000030: 8120 403e 7da6 5fbf 1a9d 98be 6369 993e
00000040: 9963 05bf 004c 083f f560 6dbf d3ee 8ebc
00000050: d0d5 f2be cbe7 ae3f 245d 1ebf 3d62 82be
00000060: dddc 1dbc 1252 193f 8c3a 6cbe 522d 423e
00000070: da17 2abf c1a3 05bf d1da 903e cf97 39bf
00000080: caa1 2dbf e229 cdbe 2447 35bf 70a5 153e
00000090: 5370 62bd c36b 863e 87eb 453f 9f76 5abf
000000a0: bb8a 77be aa3c f63e 185e 043f 9728 f9be
000000b0: 7aa6 98bf dce7 68bf 007a e73e 3919 d1be
000000c0: 130e e53e 8c50 ac39 5644 333e 9b86 b63a
000000d0: 5a2a 6a3e c39a 9d3e f1aa 863d 9150 8bbc
000000e0: dc8c 1a3e c0b3 7abb 4e55 15be 75c8 593e
000000f0: 3fdd 3bbc c9d1 2ebd ad73 413d c56d 58be
00000100: 81df d3bb a6c1 64bd 2b7e 36bf 63fc 90bd
00000110: 4eb0 48bb 35cf 643e 1bcc 24bf 5ffe 10bf
00000120: 2144 acbe 5d71 d53d 02c0 20bc 7c14 7e3c
00000130: c816 0dbc d812 1e3e dacd 243f d982 a93e
00000140: d8e3 c2be cbb1 6c3e 2f28 46be 8426 f73d
00000150: 76e0 4fbc 3058 15bc eb9e 563e 4607 ffbe
00000160: 8c51 c4bb 4c90 eebb 662f 823e f65d d13e
00000170: 0ec3 c23e 4dce 3fbf 2414 98bd dcf8 aa3d
00000180: 6abf d3bd e872 573d 6bd4 b6bb 4e45 1c3f
00000190: 4e02 b03f 1bfd bdbf a16b b93d da02 22bf
000001a0: bc24 a0bb 4c26 d9bb 1906 c13b b5f4 a3bf
000001b0: 3b91 efbf 7c4c 27be bd4d 3cbf f098 c33e
000001c0: 9e36 56be 92db a23f 5a54 31bf d1ff a7bf
000001d0: 0e85 94bf 8d50 24bc b6cc d0bf 3459 dc3e
000001e0: 3317 8abf 260e 833e 36b9 0abf b9d7 453e
000001f0: 294d 1e3f b7cc e4bf 7e1b 58be 9768 42bf
00000200: d274 6abe 7e49 a93d cc11 1cbf 64d3 b0be
00000210: 8046 dc3e 9f14 16bf 0a67 833e 4dba 373f
00000220: 12bc 47bf fc59 d23e b703 31bf 8f68 8dbf
00000230: 89d0 e0bf 33e9 8b3d 10b1 2ec0 01d2 8bbf
00000240: 513e e9be 49fc cc3b 1a87 413c fce5 66bb
00000250: 4733 52bf a3c3 d43e d690 d4bf eb6d 833a
00000260: 31c5 6ebe 3824 9fbe 2013 77bf e193 11bf
00000270: 1427 81be c9e1 a03a 6886 75be d36c 96be
00000280: 64db fb3b fec1 943a 0630 b73e 1fb3 a7be
00000290: 6863 9a3b 5fdb 0c3e 52d6 5cbe 6cb8 9abf
000002a0: f541 78bd 7361 223f 34f5 f43b fd9f 2b3b
000002b0: 92ec ea3b cfea 90be 6e07 bfbf 9c34 0cbf
000002c0: a46a 073e 52d9 62be 4f94 cebe 58a2 2abf
000002d0: a862 bdbe 20e0 4b3a 099f 843d 5dc5 97bf
000002e0: 0e44 1bbb 4076 e73a 57fc d03e f135 fbbe
000002f0: bac6 3dbf e10a 33bf 78a8 853d 1905 1abf
00000300: e7da 07bf 0b51 eb3e 056d b0bb cd6a 89bf
00000310: e1e0 d13f 798a 5cbf 822f 52be 7c5f 943e
00000320: 44c4 68bb 6340 d5ba 91a7 01bc 97c7 8fbe
00000330: 7a5f 40be dcf5 bf3d afac 823e 9641 8abe
00000340: 3bbf f2be 7e50 adbf 19db 6fbf b99f 16bf
00000350: 5586 cf3e db09 4a3f 8868 bbbe 3f23 7f3e
00000360: 565a 9dbf 3b3a d3bf 8367 5fbf a480 523d
00000370: 5050 4cbe 9f5d f73c fbaa 3d3f 606d df3e
00000380: 27e5 5b3e ef8c a1bc 4580 3abf 2344 e73e
00000390: 21bc 1abe b47f 6cbd f1aa 20bf edb2 543e
000003a0: bde8 07be d2f2 a5be 4733 6c3f 9fb3 c93e
000003b0: 4f87 49bf 8198 1d3d 9366 a23c fe81 893e
000003c0: 2057 713e e3e7 09bb f54c 64be 6ba2 e7bb
000003d0: a1be 2dbd de03 febd ff65 483e e028 983b
000003e0: c741 2a3f 28b5 293d a439 20bf c141 9cbe
000003f0: 97de e83d 7996 0fbc ba04 3c3e f36d 3ebe
0.71471626 0.4589349 0.0025077292 -0.562369 -0.30890247 0.36824656 0.8321785 0.29597753
-0.0023845006 0.035789996 -0.007951754 -0.497014 0.187624 -0.87363416 -0.2980736 0.29963216
-0.521051 0.53240967 -0.9272607 -0.017447865 -0.4742875 1.3664488 -0.6186087 -0.25465575
-0.009635177 0.59890854 -0.23069209 0.18962601 -0.66442645 -0.52202994 0.28291944 -0.72497267
-0.67824996 -0.40071017 -0.70811677 0.1461389 -0.055282902 0.2625409 0.7731251 -0.8533725
-0.24174015 0.48093158 0.51706076 -0.4866378 -1.1925805 -0.9097879 0.45210266 -0.40839556
0.447373 0.0003286641 0.17506537 0.0013925614 0.22867718 0.30782136 0.06575573 -0.01700619
0.15092796 -0.0038254112 -0.14583322 0.21267875 -0.011466323 -0.042680535 0.047229458 -0.21135624
-0.0064658527 -0.05584874 -0.7128627 -0.07079389 -0.0030622664 0.22344668 -0.6437394 -0.5663814
-0.33645728 0.10422013 -0.009811403 0.015507814 -0.0086113885 0.15436876 0.64376605 0.3310764
-0.38064456 0.23114698 -0.19351266 0.12067893 -0.012687793 -0.009115264 0.2095906 -0.49810237
-0.0059911665 -0.007280385 0.25426787 0.40892 0.3803944 -0.74924165 -0.074257165 0.083482474
-0.10339244 0.052599818 -0.0055795214 0.6104325 1.3750703 -1.4842867 0.09053732 -0.632856
-0.0048871916 -0.00662688 0.0058906195 -1.2809054 -1.8716196 -0.1633777 -0.7355612 0.3820262
-0.20919272 1.2723258 -0.69269335 -1.3124944 -1.1603105 -0.01002897 -1.6312473 0.43036807
-1.078833 0.25596732 -0.5418886 0.19320573 0.6183649 -1.7874974 -0.21104237 -0.7594084
-0.22896126 0.08265971 -0.60964656 -0.34536278 0.43022537 -0.58625215 0.2566455 0.7176865
-0.7802135 0.41084278 -0.69146293 -1.1047534 -1.756364 0.068315886 -2.729557 -1.0923463
-0.45555356 0.0062556607 0.011811996 -0.0035232296 -0.82109493 0.4155551 -1.66067 0.0010027265
-0.2331741 -0.3108232 -0.9651356 -0.5686627 -0.25225127 0.001227432 -0.23977053 -0.293799
0.0076860655 0.0011349318 0.35778826 -0.32753846 0.004711557 0.13755558 -0.21566132 -1.2087531
-0.060609777 0.63429946 0.0074755196 0.002618789 0.0071693147 -0.28304145 -1.4924142 -0.54767776
0.13224274 -0.22153214 -0.40347525 -0.66653967 -0.3698933 0.00077772327 0.06475646 -1.1857105
-0.0023691687 0.0017659143 0.4081752 -0.49064592 -0.7413136 -0.69938475 0.065262735 -0.6016403
-0.53068393 0.45960268 -0.00538409 -1.0735718 1.6396753 -0.8614879 -0.20525935 0.289791
-0.0035517374 -0.0016269799 -0.007913486 -0.28081962 -0.18786421 0.09373066 0.25522372 -0.27003163
-0.47411522 -1.3540189 -0.9369369 -0.5883747 0.40532175 0.7892129 -0.3660319 0.24915789
-1.2293193 -1.6502146 -0.8726732 0.051392213 -0.19952512 0.03019601 0.7408902 0.43638134
0.21474133 -0.019720523 -0.72851974 0.45169172 -0.15110828 -0.057738975 -0.62760836 0.2077138
-0.13272376 -0.3241182 0.92265743 0.39394853 -0.7872209 0.038475517 0.019824302 0.2685699
0.23568392 -0.0021042756 -0.22294982 -0.0070689223 -0.042418126 -0.12403081 0.19570158 0.0046435446
0.6650662 0.04143253 -0.6258795 -0.30518916 0.11370581 -0.008763903 0.18361178 -0.1859663

convs.0.mlp_upd.0.bias f4 [48]
00000000: 2d2e c73d ce6c 7fbe c602 273e 777c f7bd
00000010: dd17 94bd 83d4 12bd 4296 633e a0eb b53e
00000020: 03b9 91bc c848 90be 137f dabe d0b3 f5bc
00000030: 4dca 05bd 5af3 843e bb03 1e3e e92f bcbc
00000040: 26cd f7be 7dd1 5ebc d7f0 94bc 4d4b 0abd
00000050: b30c 24bf d633 95be 0148 ecbc bfe8 43bd
00000060: 2386 efbc 8e19 4fbe c129 e8bc 9871 0fbd
00000070: df64 1e3f 7ab2 8e3d bda7 bbbc 308f 3a3e
00000080: 7fff 09bc a3b0 8b3e 6cba 5dbe 6761 67bd
00000090: 9a3e 91bd 7b27 d3bd a93c 04bc cda3 2d3e
000000a0: 155a 98bc b1f1 ddbc a176 febc 1a82 933e
000000b0: 62d4 9cbd be09 82be 8d72 f9be 3147 b3bc
0.09725604 -0.2494385 0.16309652 -0.12084287 -0.07231114 -0.0358472 0.22225288 0.3553133
-0.017788416 -0.28180528 -0.42675075 -0.029992968 -0.032663632 0.25966913 0.1543111 -0.022972064
-0.48398703 -0.013599751 -0.018181248 -0.03376322 -0.6408188 -0.2914111 -0.028842928 -0.047829386
-0.029238766 -0.20224592 -0.028340222 -0.03502044 0.6187267 0.069676355 -0.022907132 0.18218684
-0.008422731 0.272832 -0.21653146 -0.056489374 -0.070920184 -0.10310265 -0.008071103 0.16957016
-0.018597642 -0.027092787 -0.031062426 0.28810197 -0.07657696 -0.25398058 -0.48720208 -0.021884533

convs.0.mlp_upd.2.weight f4 [48, 48]
00000000: 2495 fd3e da4f 993d f47f 303f d7ac b73d
00000010: d5b1 4b3d 1cc8 92bb 86d3 d4be 8c2b ab3e
00000020: f3f6 403d 5578 37bd 07d1 eabd c1fb 0c38
00000030: d59d 7e3c 2535 403e 979b 9dbe 5da0 da3a
00000040: 5e00 8dbe 12e4 0fbc 32b4 31bb 6997 83bc
00000050: 73d6 a3be d733 86be 6a8f 5d3c e8de adbb
00000060: 8cc5 673a faf5 a33e 5b73 5cbc 572f 923c
00000070: fa6c 403e fa00 df3d b097 03bc e9e6 f73c
00000080: b4ff 0abb 62b6 fbbd 963f ffbd 1d0b 9dbc
00000090: d1dd ae3e 78f8 55bd ac06 a93b 1623 293d
000000a0: 04a6 d4be b187 ddbb 0798 813d a005 783e
000000b0: 6b29 ce3d a24b 0c3d 2189 6bbe 7317 803a
000000c0: 8a78 c6be ef3f 8fbe c686 13be 0d3a a43e
000000d0: 13d6 713b 98b4 f13a b7c4 dd3e b4dd f83d
000000e0: 7006 4c3e 9ca4 133d 18c4 cabf 5be2 043d
000000f0: 31b6 1abc e659 173f 24d2 043e 72fc 1139
00000100: c3c1 eb3e 6ea1 113c 56c7 813c 3739 eeba
00000110: 38e7 ebbe da90 40bf c719 7a3b 1281 a83b
00000120: 9d4b 103c 2f73 e3bd a7c6 cd3b 0458 663b
00000130: f938 03bd 031c a73d ad94 b5bb e463 c8be
00000140: 19c6 3e3c 1a48 febe f4ff 95be 383f b6bb
00000150: 3cf1 41be 2f14 ab3b cd14 03bc 48a6 1dbf
00000160: d969 31bf 9083 423b 47d8 bdbd db1d 19bf
00000170: a6fb 8cbd b988 2fbd d0f6 0cbe b830 cc3a
00000180: ad7d 63bd 06bb 933b 7ff4 34bd 5450 0cbc
00000190: 382b 7b3b b434 f13b e353 cabc 9886 ebbc
000001a0: 5c49 38bd b4d2 4bbc 4aac bebc 3e9a ab3c
000001b0: 4339 e43a 83e4 7abb 3a34 55bc f9b3 0dbc
000001c0: 9168 15bc 6a76 22bc 2c4e 193b c871 ae3b
000001d0: f560 47bc a905 99bc 276e 68b9 2681 babb
000001e0: 8241 afbb 37d6 a6bc 663d c4bb 753a 10bc
000001f0: 1454 dabb b124 a7ba 24ba f2bb c4a6 06bd
00000200: ce0d 973b a868 0fbd cf77 17bd e48a 913b
00000210: 364c 8b3b c851 0dbc d184 5fbb b557 dfbc
00000220: ae39 d33b d605 89bb 981a c13b bd33 d5bc
00000230: fad1 b83a d674 d5bb 6d04 b8bc d62b a2ba
00000240: ac1e a0bb 7013 743b 3451 8bbc fe89 f3bb
00000250: 4c79 edbb 8cb8 143c a222 a3bb 249b 9dbb
00000260: 6fe4 91bc 3eef aabc 6fc5 c83b 3de9 9a3b
00000270: a8a2 1b3c 2c1c 9e3b dbb0 74bc 143d 253c
00000280: 2014 6b3a db4f 6cba b3c6 213c b375 113c
00000290: 9e35 91bb b05d 4a3b d6e7 9839 46f2 0e3c
000002a0: 07f0 90bb 129a 27bc 090f 193c 3a98 2abb
000002b0: 1c07 17bb 1ace 1bbc 1a18 0b3c d9b6 8fba
000002c0: 1fcc e03a 26f3 3fbc d2a3 82bc 35eb 07bc
000002d0: 8591 193c b32d 32bb 269e 2dbb adc3 77bc
000002e0: 5285 8fbb 0d8e 843b 7a38 8f3b 9fda ec3b
000002f0: dc52 a5bc bd81 acbc 93f2 00bd 47f1 9abb
00000300: 8d99 56bf ad6a 07be 7d11 c83e 6937 d03c
00000310: 4e71 bd3b 422a c5bb e7e7 4ebf f00c da3c
00000320: 0787 873e e735 a5be 48cf 9cbf 3065 643c
00000330: 1bf7 91bb 585f 3f3f 5d7f 683f a1ff 5d3c
00000340: 49fc 50be a570 7e3b 2b67 15bb e27c c6bc
00000350: c962 96be 0c36 d83c bf49 703c 5cc4 8bbb
00000360: e997 623a a98f 0d3f 5653 55ba 1bbf 44bc
00000370: 4112 b1bd fdac 39bf eada 3f3b 2c4a 2cbf
00000380: 8c2c 203c 792a 25bd d16c 0abf 1cf9 2c3c
00000390: dfab 8e3e 1030 23bd 2faa c53b efcd 6cbe
000003a0: d4dd e8bf 048f 893b 25a8 5b3d b9b0 92be
000003b0: 37e5 c43e c22e 883c 8f40 c73e eed0 d0bc
000003c0: ec93 9a3e 56ed 8d3e f943 21bd 522c 363e
000003d0: d4c2 03ba c0c2 be3b dba2 ca3d 4394 25bf
000003e0: a222 54bd b8dd 81bd c230 70be 47bd 423c
000003f0: f5b3 c73b 0fb3 80be fa2a 96be 2ab7 363c
0.49527848 0.074859336 0.6894524 0.089685135 0.04973014 -0.0044794213 -0.4156763 0.3343166
0.04711051 -0.044792492 -0.1146565 3.3613065e-05 0.01554056 0.18770273 -0.30782768 0.0016679872
-0.27539343 -0.008782404 -0.0027115461 -0.016063409 -0.3199955 -0.26211426 0.013522962 -0.0053061135
0.00088413875 0.32023603 -0.013455237 0.017844839 0.18791571 0.10888858 -0.008031771 0.030261474
-0.002120954 -0.12290646 -0.124633 -0.019170338 0.34153607 -0.05223891 0.005158266 0.041293226
-0.4153291 -0.0067605604 0.06327825 0.24220896 0.100664936 0.034251817 -0.2300153 0.0009772613
-0.3876384 -0.27978465 -0.1440688 0.3207554 0.003690128 0.0018440662 0.43314144 0.121516615
0.1992433 0.036045656 -1.5841093 0.032442432 -0.009442852 0.5912155 0.12970787 0.00013922321
0.46046266 0.0088885855 0.015842121 -0.001817501 -0.46074843 -0.75221026 0.0038162337 0.0051423395
0.00880709 -0.11105954 0.0062797847 0.0035147676 -0.032036755 0.0815964 -0.005541405 -0.3913871
0.01164391 -0.49664384 -0.2929684 -0.0055617355 -0.1893968 0.005220912 -0.008000565 -0.6158185
-0.69302136 0.0029680468 -0.09269767 -0.5981118 -0.06883936 -0.042855 -0.13766026 0.0015578484
-0.055539776 0.004508379 -0.044178482 -0.008564074 0.003832532 0.007361019 -0.024698203 -0.028750703
-0.044991836 -0.012440372 -0.023275513 0.020947572 0.0017412085 -0.0038283176 -0.01301294 -0.008648866
-0.009119169 -0.009915927 0.0023392541 0.0053236224 -0.012169112 -0.018679457 -0.00022166279 -0.005691665
-0.0053483853 -0.020365817 -0.0059887646 -0.008803 -0.006662855 -0.0012752024 -0.0074074436 -0.032873884
0.0046098 -0.035011917 -0.036979493 0.004441606 0.0042510284 -0.008625455 -0.0034106264 -0.027263502
0.006446085 -0.004181604 0.005893063 -0.026025647 0.0014100664 -0.006514172 -0.022463048 -0.0012372683
-0.004886469 0.003724303 -0.017006494 -0.0074322214 -0.0072471257 0.0090772025 -0.004978494 -0.004809754
-0.017809121 -0.020866033 0.0061270515 0.004727511 0.0094992295 0.0048251357 -0.014934744 0.010085363
0.00089675374 -0.0009014585 0.009874034 0.008878159 -0.0044314405 0.0030878596 0.0002916443 0.008724755
-0.0044231447 -0.010229604 0.009341964 -0.0026030676 -0.002304501 -0.009509588 0.008489633 -0.0010964527
0.0017150677 -0.011715686 -0.015947256 -0.008295824 0.0093730735 -0.0027187883 -0.002649197 -0.015122336
-0.0043799067 0.004045254 0.004370746 0.00722821 -0.020181112 -0.021057958 -0.031481337 -0.0047284695
-0.8382805 -0.13224287 0.39075842 0.025417047 0.0057813292 -0.0060170004 -0.80822605 0.026617497
0.26470205 -0.32267687 -1.2250757 0.013940141 -0.004454506 0.7475486 0.9081934 0.013549716
-0.20408739 0.0038824466 -0.0022797089 -0.02422947 -0.29372242 0.026392959 0.01466602 -0.004265351
0.0008643852 0.55297333 -0.0008137723 -0.012008454 -0.0864606 -0.72529584 0.002927477 -0.6730068
0.009776246 -0.04032371 -0.5407229 0.010557439 0.27865502 -0.039840758 0.0060322504 -0.23125432
-1.8192697 0.004197957 0.053627152 -0.28650454 0.38456127 0.016623858 0.38916442 -0.02549025
0.3019098 0.27720135 -0.039371464 0.17790344 -0.0005026285 0.005821556 0.098943435 -0.64679354
-0.05179084 -0.063411176 -0.234561 0.011885948 0.0060944506 -0.2513661 -0.29329664 0.011152068

convs.0.mlp_upd.2.bias f4 [48]
00000000: cb3e 8d3a c812 113f c837 93bd b4da 2bbd
00000010: ca3b 70bd be8f 02be c40c 51bd 9abc 74bc
00000020: 0ea1 2bbe c7ad 013f 4d2d 7b3d b319 50bc
00000030: 73da 123e a3e7 22bf 3297 303f 4b36 24be
00000040: 6d8f 99bc 0f64 dd3d 363c ad3e 728d 16bf
00000050: 3d85 243c 304f 1f3e 5429 993d ee3c f3bd
00000060: 099e 9fbc 33c4 dbbc a7e5 163e b770 ed3e
00000070: 2661 2fbe 6c91 c7be 0515 e9bc d91c 93bd
00000080: 3978 81bd 6d68 d5bd 6e64 85be 4cf9 c1be
00000090: e919 60bd f409 383e b47a 72be 986c aabe
000000a0: 10d5 22bd c359 d1bd f4a9 9f3e 404f 38be
000000b0: b254 a73e c597 fa3e d4fe b0be 28f3 a4bc
0.001077616 0.5666928 -0.07188374 -0.04195662 -0.05865077 -0.12750146 -0.051037565 -0.014937544
-0.16760656 0.5065579 0.0613225 -0.01270144 0.14341144 -0.636347 0.68980706 -0.16036336
-0.018745149 0.108101 0.33835 -0.5880958 0.010041532 0.15557551 0.07478586 -0.11876856
-0.019484537 -0.026826954 0.14736043 0.46375057 -0.17126903 -0.38978136 -0.028452406 -0.07183237
-0.06321759 -0.10420308 -0.26053184 -0.3788551 -0.05471221 0.17972547 -0.2367962 -0.33285975
-0.039753973 -0.10222199 0.3118435 -0.17998981 0.32681805 0.48943916 -0.34569418 -0.020135477
