saved_models/mpnn_model_maestro_20230322T041141.pt (torch, 272331 bytes, 39 tensors)

lin_in1.weight f4 [48, 48]
-0.28616905 -0.07856406 0.3690311 0.17010802 -0.72896427 -1.2769003 -0.17558043 0.19806932
-0.0047682505 0.037976593 -0.29541066 0.10622814 0.47438988 0.3449148 -0.16154276 -0.31512403
-0.93932575 -0.35690665 0.28456715 -0.13397372 -0.23190866 -0.46979257 -0.35989115 -0.22801149
0.7340131 0.6004848 -0.45737094 -0.85870975 -1.0496218 0.19000092 0.57345015 0.14724167
-0.18946576 -0.18420115 0.07533243 0.17257152 0.5075145 0.46307996 -0.76290584 -1.8976676
-0.4790442 0.046850417 0.1777335 -0.09371304 -1.1534013 -0.6961856 0.33193678 0.64279884
0.35705018 0.6591345 0.5811865 0.593786 0.5817028 0.4415841 0.44312906 0.47218454
0.05767713 0.04774398 -0.5398877 -0.53864956 -0.802295 -0.72638154 -1.024852 -0.7328013
-0.96031976 -0.43164724 -0.2636216 -0.3398872 -0.17427249 0.10038385 0.19581373 0.36064383
0.38586894 0.26651743 0.20408113 0.19572438 0.032584235 -0.30056542 -0.26159915 -0.027985042
-0.51977754 -0.6106398 -0.24153215 -0.39253128 -0.19042006 -0.13866071 -0.2156513 -0.03349393
0.051254127 -0.11532123 -0.06697761 0.1014886 0.21669884 0.1873461 0.0678468 -0.2301911
-0.4616995 0.4127009 -0.12997378 0.2848729 -0.63211256 0.17092931 0.3074497 0.23002101
-0.07473921 -0.39607573 0.04741816 -0.073215224 -0.48802903 0.23090436 0.49423903 0.44931862
-0.3273704 -0.12974058 0.20243174 0.039666668 -0.14229277 -0.29684308 0.3172785 0.4817472
-0.011016111 -0.42628065 -0.49688715 -0.037392545 0.038297877 -0.593247 -0.3276585 0.7213002
0.34917673 -1.7905182 -0.29699808 0.04230907 0.2937087 -0.44733045 -0.6521117 0.51448673
0.784526 -0.57397115 -0.7229402 -0.05773279 0.12345163 -0.8102989 -2.7843816 -0.4510744
-0.060324892 -0.021624088 0.007207311 0.06694414 0.011938123 0.045116678 -0.077540085 -0.040146314
-0.010872482 0.049960844 -0.08284576 0.11597663 0.006540471 0.049659193 0.111514926 0.00507659
0.0023838717 -0.111577615 0.0054068905 0.079947025 -0.04105716 0.04345659 -0.10976274 0.09086296
0.041760597 -0.002731305 0.0024993054 -0.05416231 -0.0031778417 0.062268246 -0.034573317 -0.1437934
-0.10784937 -0.18437739 0.0009990489 -0.021085616 0.120135576 -0.048647363 0.030617192 0.057002462
-0.04331339 -0.0057268264 -0.18004125 -0.32682452 -0.826181 -0.3293526 -1.8013557 1.908241
-0.061231125 0.005467469 -0.0074975714 -0.016119143 -0.28452447 -0.08159826 0.024359683 -0.13442898
-0.046524014 0.07059555 0.018392745 0.032839224 -0.27871987 0.1796072 0.095168956 0.26088
-0.044514645 -0.23387487 -0.38248634 -0.13364896 0.02189708 0.2909777 0.011953721 0.054340463
-0.18644977 -0.05264018 0.21260908 0.2824271 0.44651762 0.19586469 -0.26670125 -0.25260448
-0.090582535 0.31721112 0.681318 0.3198714 -0.34999126 -1.6511252 -1.1022401 0.10245719
0.686707 0.7369565 0.24742164 -0.51183844 -1.7793602 -1.5652467 0.32474965 0.77910715
-0.4322689 0.14891969 -0.032986224 0.14992096 0.09011173 0.10172465 -0.017798923 -0.8726627
-0.25229284 -0.6522728 -0.032593586 0.3427233 0.38911322 0.5663457 0.6601004 0.3496994
00000000: c084 92be 32e6 a0bd a5f1 bc3e cc30 2e3e
00000010: 679d 3abf 7871 a3bf 5bcb 33be afd2 4a3e
00000020: fc3e 9cbb 588d 1b3d 1140 97be 248e d93d
00000030: 3be3 f23e ac98 b03e 776b 25be f057 a1be
00000040: a777 70bf 78bc b6be c9b2 913e 6830 09be
00000050: 7779 6dbe a788 f0be a743 b8be d87b 69be
00000060: 48e8 3b3f 5fb9 193f 862c eabe 67d4 5bbf
00000070: 025a 86bf 9a8f 423e a1cd 123f 85c6 163e
00000080: 5003 42be 3a9f 3cbe e447 9a3d 97b6 303e
00000090: 78ec 013f d118 ed3e cc4d 43bf c6e6 f2bf
000000a0: 4845 f5be 39e6 3f3d c5ff 353e 9fec bfbd
000000b0: a7a2 93bf 3839 32bf 9ef3 a93e 778e 243f
000000c0: 48cf b63e 0abd 283f a3c8 143f 5c02 183f
000000d0: 7aea 143f 5017 e23e d0e1 e23e 2cc2 f13e
000000e0: db3e 6c3d 318f 433d 1536 0abf f0e4 09bf
000000f0: 3563 4dbf 24f4 39bf 5a2e 83bf de98 3bbf
00000100: 84d7 75bf de00 ddbe 69f9 86be b205 aebe
00000110: 7d74 32be 0c96 cd3d 6583 483e 4fa6 b83e
00000120: 9d90 c53e f974 883e a5fa 503e f96b 483e
00000130: 0c77 053d b6e3 99be 53f0 85be e340 e5bc
00000140: 2410 05bf e452 1cbf 3454 77be dcf9 c8be
00000150: 7afd 42be 13fd 0dbe b2d3 5cbe ee30 09bd
00000160: d9ef 513d 892d ecbd 8f2b 89bd 41d9 cf3d
00000170: 4de6 5d3e a8d7 3f3e 43f3 8a3d 37b7 6bbe
00000180: e063 ecbe 884d d33e d917 05be dcda 913e
00000190: 21d2 21bf 1808 2f3e 0c6a 9d3e a18a 6b3e
000001a0: df10 99bd 70ca cabe 8b39 423d ddf1 95bd
000001b0: f1de f9be 3172 6c3e e60c fd3e 170d e63e
000001c0: 189d a7be b7da 04be 444a 4f3e 8479 223d
000001d0: 32b5 11be d1fb 97be 5472 a23e 92a7 f63e
000001e0: eb7c 34bc 7541 dabe fe67 febe ed28 19bd
000001f0: 3cde 1c3d 09df 17bf dbc2 a7be 21a7 383f
00000200: 4bc7 b23e b32f e5bf 2210 98be 464c 2d3d
00000210: fd60 963e 7f08 e5be cbf0 26bf 67b5 033f
00000220: b2d6 483f c6ef 12bf 9c12 39bf 3879 6cbd
00000230: 35d4 fc3d c06f 4fbf 4f33 32c0 39f3 e6be
00000240: 3c17 77bd 0025 b1bc 4f2b ec3b 021a 893d
00000250: 1e98 433c 44cc 383d 56cd 9ebd 7670 24bd
00000260: 7f22 32bc bea3 4c3d 0aab a9bd 2885 ed3d
00000270: 7351 d63b 7067 4b3d f061 e43d 8659 a63b
00000280: bb3a 1c3b ce82 e4bd 492c b13b 44bb a33d
00000290: 8d2b 28bd 8aff 313d 4acb e0bd 5c16 ba3d
000002a0: 290d 2b3d b2ff 32bb 63cb 233b 4cd9 5dbd
000002b0: 5643 50bb fd0c 7f3d c09c 0dbd 943e 13be
000002c0: 21e0 dcbd 6dcd 3cbe 85f2 823a bebb acbc
000002d0: a409 f63d 7542 47bd e8d0 fa3c 6a7b 693d
000002e0: 6269 31bd 1aa8 bbbb bc5c 38be 8b55 a7be
000002f0: 9980 53bf e7a0 a8be d392 e6bf 3e41 f43f
00000300: 7dcd 7abd 7428 b33b 30ae f5bb 4b0c 84bc
00000310: 31ad 91be fd1c a7bd f58d c73c c0a7 09be
00000320: f78f 3ebd 6694 903d 62ac 963c 6c82 063d
00000330: 5fb4 8ebe f3ea 373e f1e7 c23d 1092 853e
00000340: fd54 36bd e57c 6fbe 40d5 c3be 46db 08be
00000350: 8161 b33c 07fb 943e 8ad9 433c 1b94 5e3d
00000360: b0ec 3ebe 3b9d 57bd 32b6 593e 499a 903e
00000370: f59d e43e c190 483e 118d 88be 6055 81be
00000380: 5683 b9bd 7f69 a23e db6a 2e3f 2fc6 a33e
00000390: 0e32 b3be 1258 d3bf 3416 8dbf 13d5 d13d
000003a0: 08cc 2f3f 2ea9 3c3f 195c 7d3e d807 03bf
000003b0: 13c2 e3bf 015a c8bf 9645 a63e 9173 473f
000003c0: 5952 ddbe 677e 183e 901c 07bd e184 193e
000003d0: 808c b83d 0355 d03d 0ccf 91bc d366 5fbf
000003e0: 872c 81be 5afb 26bf da80 05bd 6e79 af3e
000003f0: d939 c73e 08fc 103f 57fc 283f cd0b b33e

lin_in1.bias f4 [48]
-0.8005904 -0.17484745 -0.71285665 -0.098088816 -0.850464 -0.3339097 -0.13071129 0.3082431
-0.19873454 -0.3160356 -0.6392109 -0.32054058 -0.7009119 -0.3845229 0.36556086 -0.4551348
-0.4807072 -0.51712394 -0.7198697 -0.08852032 -0.5252504 -0.6882058 -0.5124547 -0.7024128
0.52930254 -0.055829335 0.07879228 -0.12795311 -0.3826318 -0.82994646 -0.47167698 -0.19633666
-0.5140446 -0.35448003 -0.8494264 -0.6944147 -0.33876678 -0.33623067 -0.5283619 0.3158784
-0.4001137 -0.47296357 -0.16664858 -0.054604374 -0.27689764 -0.5755581 -0.59849364 -0.67728025
00000000: 7ef3 4cbf 360b 33be c67d 36bf cae2 c8bd
00000010: 02b8 59bf 36f6 aabe 2ed9 05be 0ad2 9d3e
00000020: 1181 4bbe 6bcf a1be 53a3 23bf e51d a4be
00000030: f66e 33bf 30e0 c4be cb2a bb3e 6e07 e9be
00000040: 411f f6be 3c62 04bf 6149 38bf 244a b5bd
00000050: cf76 06bf 412e 30bf 3b30 03bf 53d1 33bf
00000060: 5f80 073f 4dad 64bd d95d a13d 2406 03be
00000070: 51e8 c3be 5f77 54bf a57f f1be 7a0c 49be
00000080: 6d98 03bf 687e b5be 0274 59bf 29c5 31bf
00000090: d772 adbe 6d26 acbe ba42 07bf d0ba a13e
000000a0: b4db ccbe 4828 f2be eda5 2abe d6a8 5fbd
000000b0: 87c5 8dbe c757 13bf e136 19bf 3d62 2dbf

lin_in2.weight f4 [48, 48]
-0.004383946 -0.07621207 0.01546698 -0.19723272 0.124647886 -0.25522178 -0.47390068 0.68231434
-0.11387675 0.0021144908 0.25181106 0.02867459 0.18370399 0.7417685 0.17272475 -0.103797086
-0.13365638 -0.0360806 -0.33817866 -0.3901253 -0.13112989 0.02238266 -0.16063377 -0.43456665
-0.3371813 -0.040269837 0.3606931 -0.27084044 -0.056531284 0.36277577 -0.6390112 -0.7904099
-0.116258256 -0.168856 -0.09526029 -0.19570011 -0.36855078 0.030021466 0.098463915 -0.14958279
-0.73631054 0.45966756 -0.20157166 0.002455324 -0.6671089 0.08578147 -0.11803399 -0.44215456
-0.61805475 -0.18507239 -0.38289297 0.7161565 -0.056173496 -0.58566856 -0.23562849 0.1950745
-0.645847 0.3546835 -2.1239178 -0.19041963 -0.34673566 0.3041945 -0.12941477 -0.23350933
-0.633078 -0.51448107 -0.4044791 -0.20193654 -0.036924403 -0.63884455 0.5864945 -0.89713717
-1.3865631 -0.24703439 -0.010834253 -0.2788295 -0.4351768 -2.1008992 -0.26607248 -1.2509199
-0.47935888 -0.7948838 -0.35648343 0.14917393 -0.5537184 -0.11871014 -0.44952488 -0.4008362
-0.46687365 0.076399826 -0.4808063 -0.48815244 -1.437263 -0.035304934 -0.89751166 -0.40163872
-2.7180968e-07 -1.0096996e-06 1.5888535e-08 -6.714629e-07 -3.5106083e-07 -1.6945944e-07 -5.575275e-07 -7.860606e-07
-1.5971945e-07 -1.08502135e-07 -6.3599975e-07 5.136622e-08 1.8981949e-07 -1.1046211e-06 2.0181413e-07 1.9208612e-07
-1.918833e-07 -2.8415212e-07 -3.2774338e-07 -2.1287933e-07 -4.4760205e-07 -5.0765044e-07 -7.9895125e-07 -1.1458553e-06
-4.016964e-07 -6.078057e-07 -3.9306963e-07 -3.981926e-07 -5.9246565e-07 -1.348899e-07 -2.4355276e-07 -1.813519e-08
-3.3645952e-07 -7.7290383e-07 -6.083796e-07 3.3311036e-07 -1.992007e-07 -6.114507e-07 -8.44332e-07 -5.4510105e-07
-2.1854423e-07 -3.3234372e-07 -1.1343462e-08 1.4637065e-07 -3.2684645e-07 -6.29777e-07 -3.9746857e-07 1.2600647e-07
-6.166772e-07 -6.546871e-07 1.8027707e-07 -6.7538787e-07 -4.6297916e-07 -3.6364023e-07 8.149329e-08 -4.459487e-07
-1.3690064e-07 -3.985708e-07 -3.1468485e-07 -8.5950995e-07 -6.346713e-07 -6.275462e-07 -5.397395e-07 -6.501978e-07
2.0990129e-07 -1.348187e-06 -4.2221205e-07 3.9500716e-08 -4.82496e-07 -4.5218127e-07 -6.79383e-07 -2.745267e-07
-1.6228232e-06 -3.359165e-07 2.836964e-07 -1.5280057e-06 -5.715759e-07 8.947089e-08 -3.2335538e-07 -6.696669e-07
-4.9442485e-07 -2.549223e-07 -4.2354378e-07 1.3974994e-07 3.1401746e-07 -5.9885906e-07 -1.4049621e-06 -9.7137175e-08
-1.5932106e-07 -6.3594257e-07 6.002302e-08 -2.9178787e-07 -6.563534e-07 -5.091622e-07 -3.234727e-07 -1.3397193e-06
0.50453925 -0.18506168 0.088432305 -0.47093606 -0.37571228 -0.022197962 -0.52858794 -0.055298787
-0.6464799 -0.5510543 -0.041624255 -0.09859544 0.29323584 -0.37163556 -0.6416076 -0.25840196
0.47623783 0.11333721 0.21157342 0.282478 0.4799417 0.2615522 0.1310192 -0.9577413
0.11179895 0.27144507 -0.9330284 0.62003815 -0.22758104 -0.7854188 -0.29264826 -0.8986731
0.21937388 0.07487096 -0.67485046 0.35227606 -1.0204504 -0.58205026 -0.062106367 -0.2874539
-0.019400733 -0.03711253 0.09096155 -0.57996464 0.15481862 -0.019775463 0.5794204 0.41647747
-4.256118e-07 -1.4000468e-08 6.495314e-08 -1.893255e-07 3.8663816e-07 -3.0888015e-07 -9.111018e-09 -1.9264226e-07
3.8679648e-08 -4.387124e-07 -5.3657764e-08 -5.1169536e-07 -5.7351453e-08 -1.7055567e-06 1.540835e-08 1.4267013e-08
00000000: 34a7 8fbb 1315 9cbd 3769 7d3c 60f7 49be
00000010: 6447 ff3d 6eac 82be 1ca3 f2be 27ac 2e3f
00000020: 3738 e9bd 4593 0a3b 61ed 803e f9e6 ea3c
00000030: e61c 3c3e 8ae4 3d3f c2de 303e 9193 d4bd
00000040: 38dd 08be 40c9 13bd c125 adbe 81be c7be
00000050: ea46 06be d75b b73c 2e7d 24be 857f debe
00000060: 07a3 acbe fcf1 24bd c4ac b83e 99ab 8abe
00000070: 598d 67bd bfbd b93e 3d96 23bf 4e58 4abf
00000080: cf18 eebd 96e8 2cbe d417 c3bd 9c65 48be
00000090: b0b2 bcbe 94ef f53c 73a7 c93d 3b2c 19be
000000a0: d97e 3cbf 8c59 eb3e cd68 4ebe 80e9 203b
000000b0: a6c7 2abf 32ae af3d cebb f1bd 1562 e2be
000000c0: d638 1ebf 9e83 3dbe 8c0a c4be 0856 373f
000000d0: 2e16 66bd 60ee 15bf 9848 71be 9cc1 473e
000000e0: 3b56 25bf 1399 b53e 45ee 07c0 5dfd 42be
000000f0: 5687 b1be 62bf 9b3e 4e85 04be 121d 6fbe
00000100: 6611 22bf 08b5 03bf e217 cfbe 74c8 4ebe
00000110: 0b3e 17bd 518b 23bf 8124 163f c8aa 65bf
00000120: e67a b1bf 95f6 7cbe 2782 31bc bdc2 8ebe
00000130: 7ecf debe 2275 06c0 a73a 88be 251e a0bf
00000140: 876e f5be 817d 4bbf ff84 b6be 0dc1 183e
00000150: 7dc0 0dbf 4d1e f3bd 2028 e6be 673a cdbe
00000160: 100a efbe 8377 9c3d 3e2c f6be 1eef f9be
00000170: 3cf8 b7bf e89b 10bd 53c3 65bf 97a3 cdbe
00000180: 3ded 91b4 0485 87b5 427b 8832 943e 34b5
00000190: 6f79 bcb4 a8f4 35b4 00a9 15b5 ac01 53b5
000001a0: 597f 2bb4 ae01 e9b3 92b9 2ab5 c29d 5c33
000001b0: 2fd1 4b34 7e42 94b5 3fb2 5834 3b40 4e34
000001c0: 7b08 4eb4 928d 98b4 b5f4 afb4 d393 64b4
000001d0: f54d f0b4 7945 08b5 8377 56b5 4acb 99b5
000001e0: bca8 d7b4 1728 23b5 1407 d3b4 2dc7 d5b4
000001f0: ee09 1fb5 41d6 10b4 a3c1 82b4 b4c7 9bb2
00000200: a5a2 b4b4 8c79 4fb5 874f 23b5 57d6 b234
00000210: dfe3 55b4 9222 24b5 0ea6 62b5 0f53 12b5
00000220: fba8 6ab4 f96c b2b4 13e1 42b2 0f2a 1d34
00000230: 6f79 afb4 f20d 29b5 aa63 d5b4 654c 0734
00000240: bc89 25b5 c1bd 2fb5 2f92 4134 4d4c 35b5
00000250: 5f8f f8b4 553a c3b4 6901 af33 b96a efb4
00000260: f6fe 12b4 27fb d5b4 f5f1 a8b4 13b9 66b5
00000270: 485e 2ab5 a674 28b5 9ee2 10b5 4189 2eb5
00000280: 3a61 6134 5af3 b4b5 62ac e2b4 7fa7 2933
00000290: df84 01b5 52c3 f2b4 d85e 36b5 aa62 93b4
000002a0: c8cf d9b5 0358 b4b4 f04e 9834 e015 cdb5
000002b0: 666e 19b5 2423 c033 a099 adb4 29c3 33b5
000002c0: 9eb8 04b5 41dc 88b4 6a63 e3b4 2c0e 1634
000002d0: 3b96 a834 48c1 20b5 2192 bcb5 ba99 d0b3
000002e0: d711 2bb4 a4b5 2ab5 01e6 8033 05a7 9cb4
000002f0: 4330 30b5 5cad 08b5 c0a9 adb4 68d0 b3b5
00000300: 7c29 013f cf80 3dbe ff1b b53d 881e f1be
00000310: 5c5d c0be 80d8 b5bc 8a51 07bf fb80 62bd
00000320: b57f 25bf e511 0dbf 327e 2abd 68ec c9bd
00000330: 0223 963e 0447 bebe 6540 24bf 434d 84be
00000340: 72d5 f33e 571d e83d b4a6 583e f5a0 903e
00000350: ebba f53e 2cea 853e e629 063e 892e 75bf
00000360: d9f6 e43d d9fa 8a3e f3da 6ebf d2ba 1e3f
00000370: 010b 69be 3511 49bf fed5 95be 710f 66bf
00000380: 8ca3 603e f255 993d 00c3 2cbf 875d b43e
00000390: 1e9e 82bf 3f01 15bf 3f63 7ebd 282d 93be
000003a0: 49ee 9ebc 4f03 18bd 0d4a ba3d 9078 14bf
000003b0: c688 1e3e 2700 a2bc e554 143f 893c d53e
000003c0: a47f e4b4 b686 70b2 5e7c 8b33 6649 4bb4
000003d0: 2593 cf34 2ad4 a5b4 ae86 1cb2 1ad9 4eb4
000003e0: b920 2633 2c88 ebb4 5675 66b3 705b 09b5
000003f0: 9752 76b3 7bea e4b5 525b 8432 fd1a 7532

lin_in2.bias f4 [48]
-0.7691344 0.17953967 -7.6352507e-07 -2.4133114e-06 0.047088746 -6.1092555e-07 -1.826617e-05 1.4847571e-06
-0.6371866 -0.00074222643 -8.8683765e-07 -0.53427434 -5.1393783e-07 0.16292667 0.25016797 0.46704143
0.18836316 -1.5304723e-06 0.39391008 -1.42654135e-05 -9.934129e-07 -2.1168535e-06 -0.18984787 0.33504254
0.39139092 -0.00048846024 -2.6164987e-06 -2.5684856e-06 0.4854596 -0.008374941 -0.7683666 -0.00029353212
0.3112896 -1.3094934e-06 -1.4439883e-06 -1.4339013e-06 -9.1969525e-07 -1.7401854e-06 -1.641866e-06 -1.1861922e-06
-0.09209053 -1.2800888e-06 -0.20490244 -0.00014807773 -1.565811e-06 -1.1278269e-06 0.1507193 -0.00012149747
00000000: fee5 44bf 3fd9 373e 0bf5 4cb5 60f4 21b6
00000010: 21e0 403d 7cfe 23b5 4d3a 99b7 de47 c735
00000020: a91e 23bf f991 42ba 050f 6eb5 34c6 08bf
00000030: 8af5 09b5 40d6 263e 0416 803e 0e20 ef3e
00000040: 46e2 403e a16a cdb5 95ae c93e 7c55 6fb7
00000050: 6855 85b5 440f 0eb6 7b67 42be b28a ab3e
00000060: 6464 c83e 030c 00ba 1b97 2fb6 3f5e 2cb6
00000070: 298e f83e 0c37 09bc acb3 44bf 37e5 99b9
00000080: 5a61 9f3e dac1 afb5 0fcf c1b5 7974 c0b5
00000090: fae0 76b5 5190 e9b5 165e dcb5 4135 9fb5
000000a0: f699 bcbd 84cf abb5 f2d1 51be 5045 1bb9
000000b0: db28 d2b5 d65f 97b5 2956 1a3e 75cc feb8

convs.0.mlp_msg.0.weight f4 [48, 102]
0.36807674 -0.48707354 -1.4688756e-07 -1.4095296e-07 -0.017253732 3.9970482e-07 1.4330504e-06 -7.3694205e-06
0.6624473 -0.00023008352 -4.343124e-09 -0.733282 -1.2258514e-06 0.12240459 -0.33723056 -0.7223377
-1.1600727 1.1693555e-06 0.0035558885 8.738025e-07 1.7590506e-07 3.2412265e-07 -0.14781155 -1.3288188
-0.57246387 9.813928e-05 -9.17943e-07 -1.236617e-06 0.010456596 0.2775344 -0.3173951 1.8442319e-05
0.2150643 1.4943453e-07 -1.1293478e-06 -4.5755414e-07 1.35549e-07 -3.923289e-07 -1.3314789e-07 6.260752e-07
0.3892262 -3.5777072e-07 0.21616581 3.842397e-05 -3.537507e-07 -5.482875e-07 0.19763902 5.863682e-06
0.15418431 -1.6009972 3.7184728e-07 -3.4910002e-07 -0.42513892 2.8848265e-07 -4.7411712e-07 -3.1849147e-05
-0.60506874 0.00011415373 2.857689e-07 -0.49346814 -6.624671e-07 -0.3200541 -0.126346 -3.052076
-0.42659116 -1.8056154e-06 0.16421051 1.129904e-05 -5.297803e-08 -1.5384074e-06 -0.21083319 -0.40745395
0.37009382 9.6342745e-05 -1.7547134e-06 -6.853926e-07 -0.34618005 0.09609208 -0.15045409 -3.8841677e-06
-0.097500704 -2.0149027e-07 -4.500196e-07 -3.0423791e-07 6.566858e-07 -7.484285e-08 -3.3187633e-09 8.8933575e-07
0.11965871 2.0621802e-07 0.27269292 5.0037885e-05 -3.4845277e-07 4.763721e-07 0.31196174 1.3862531e-05
0.5087139 0.006739342 -0.9198891 -0.14329906 0.40918812 -0.029685814 -0.3856562 0.04926439
-1.5209064e-07 7.8775344e-08 -0.020866375 1.2605417e-08 -1.879012e-06 1.25748975e-05 -0.09487945 -0.0005833457
4.6646142e-07 0.016595935 8.5783427e-07 0.1194048 0.0799007 0.13454165 -0.18107697 3.607604e-08
0.025045797 -4.2861234e-06 -1.7646828e-07 2.4190964e-08 -0.080954276 0.17484322 0.259075 -0.000103575745
1.925567e-06 7.642212e-07 -0.16130032 0.08406001 0.10657934 9.148794e-06 0.021392874 -7.1124354e-08
1.1176793e-06 -6.7047665e-07 -9.921606e-08 -1.2603657e-07 -4.2747772e-07 -9.708305e-07 -0.11096099 -3.257802e-08
0.023626298 1.4084735e-05 7.822051e-07 6.781892e-07 -0.07303812 8.792751e-06 -0.013877056 0.22608706
2.9123882e-07 -2.8309225e-08 -0.47886336 1.2879336e-07 7.8027773e-07 -4.8504753e-05 0.12952927 7.466993e-05
-2.5987165e-07 0.38194296 -4.9600767e-06 0.04807905 -0.40086704 -0.6371321 -0.9574156 -1.7024392e-06
-0.11646833 -2.4070876e-05 -2.6809326e-07 -1.6594016e-06 0.29967862 -1.1571869 0.09708669 0.00012660271
-4.638227e-06 -4.2695774e-06 0.009163445 0.106178276 0.13677676 -4.5671522e-06 0.19642942 1.092449e-07
-5.036636e-06 2.4022543e-07 4.843274e-07 3.261318e-08 2.0641134e-07 9.2133916e-07 0.17680834 1.7300657e-07
-0.28928113 -5.801125e-05 -1.2770929e-06 5.010676e-07 0.30379352 -0.00012055167 0.6784301 -3.1942286
0.72463405 0.45211223 -3.0280354 0.83940697 -0.70426536 -0.29685795 -6.760705e-08 3.050692e-07
-0.28183597 -1.7098522e-07 9.5101916e-07 -3.1173782e-05 0.2983405 0.00022144489 -2.2433056e-07 0.29923457
-9.3173657e-07 0.23698974 -0.09393269 -0.5737684 -0.120839596 1.5431391e-06 -1.0966641 3.3516612e-06
-3.0570308e-07 -5.1627137e-07 0.08573704 0.18770586 -0.27004558 -9.258431e-05 -2.6614605e-06 -4.682748e-07
0.114164054 0.5329101 -0.580651 -3.0688675e-06 -0.7917644 1.4455919e-08 -3.2156237e-07 -4.3257057e-07
-4.7104882e-07 7.104162e-07 -3.74674e-07 2.1318708e-07 -0.8319856 2.4904801e-07 0.48077193 -3.125266e-05
-7.737478e-08 4.5317236e-07 0.093434274 -1.723419e-05 -1.7712867 0.62257195 -6.356386e-08 2.567e-07
00000000: 8e74 bc3e b461 f9be 25b8 1db4 db58 17b4
00000010: b357 8dbc 0397 d634 3d57 c035 d746 f7b6
00000020: 2596 293f 9342 71b9 863a 95b1 5fb8 3bbf
00000030: ef87 a4b5 42af fa3d 7ca9 acbe 20eb 38bf
00000040: 437d 94bf c0f2 9c35 e909 693b 408f 6a35
00000050: 6ae0 3c34 1403 ae34 e95b 17be bc16 aabf
00000060: fe8c 12bf 20d0 cd38 9068 76b5 d6f9 a5b5
00000070: 2452 2b3c fd18 8e3e 9c81 a2be 94b4 9a37
00000080: d139 5c3e 4074 2034 1894 97b5 c3a5 f5b4
00000090: 6d8b 1134 46a1 d2b4 6af7 0eb4 8f0f 2835
000000a0: a848 c73e a213 c0b4 925a 5d3e 6c29 2138
000000b0: 20eb bdb4 082e 13b5 e261 4a3e a5c0 c436
000000c0: 7ee2 1d3e 7aed ccbf 4da2 c734 f16b bbb4
000000d0: cfab d9be c1e0 9a34 298a feb4 c395 05b8
000000e0: c9e5 1abf d165 ef38 c76b 9934 dba7 fcbe
000000f0: 64d4 31b5 22de a3be d960 01be 3755 43c0
00000100: 286a dabe 7958 f2b5 cd26 283e 0291 3d37
00000110: f689 63b3 477b ceb5 a8e4 57be ce9d d0be
00000120: f07c bd3e 9e0b ca38 7e83 ebb5 d2fb 37b5
00000130: 833e b1be edcb c43d a310 1abe bf54 82b6
00000140: 73ae c7bd 3959 58b4 399a f1b4 2456 a3b4
00000150: 1b47 3035 4bb9 a0b3 4d10 64b1 b0ba 6e35
00000160: a00f f53d c76c 5d34 689e 8b3e c5df 5138
00000170: fc12 bbb4 15c0 ff34 73b9 9f3e 1e93 6837
00000180: 133b 023f b3d5 dc3b da7d 6bbf fdbc 12be
00000190: 1b81 d13e aa2f f3bc bb74 c5be 75c9 493d
000001a0: 5b4e 23b4 342b a933 f6ef aabc 368f 5832
000001b0: 5c32 fcb5 c6f8 5237 2850 c2bd abeb 18ba
000001c0: f86d fa34 33f4 873c ec45 6635 818a f43d
000001d0: faa2 a33d 49c5 093e 3e6c 39be 07f2 1a33
000001e0: d82c cd3c 85d1 8fb6 3b7b 3db4 7ecc cf32
000001f0: 5bcb a5bd 1a0a 333e 7aa5 843e ce36 d9b8
00000200: fd38 0136 e224 4d35 e92b 25be a827 ac3d
00000210: 4546 da3d c57d 1937 1c40 af3c 07bd 98b3
00000220: 2b03 9635 cefa 33b5 9b10 d5b3 ab54 07b4
00000230: 1780 e5b4 7b4d 82b5 843f e3bd e9eb 0bb3
00000240: f08b c13c 7a4d 6c37 baf8 5135 cf0c 3635
00000250: 0395 95bd 9484 1337 975c 63bc 5e83 673e
00000260: 8f5b 9c34 a52c f3b2 942d f5be 734a 0a34
00000270: 4774 5135 9571 4bb8 52a3 043e 1d98 9c38
00000280: 7d84 8bb4 078e c33e bc6e a6b6 8aee 443d
00000290: 723e cdbe 171b 23bf 3019 75bf 5e7f e4b5
000002a0: f386 eebd d0eb c9b7 75ee 8fb4 9bb8 deb5
000002b0: 7a6f 993e b31e 94bf 63d5 c63d a8c0 0439
000002c0: 11a2 9bb6 6443 8fb6 4622 163c ff73 d93d
000002d0: 350f 0c3e 8a3f 99b6 cb24 493e 059a ea33
000002e0: 6000 a9b6 55f8 8034 ba02 0235 9212 0c33
000002f0: eba1 5d34 f251 7735 3f0d 353e afc3 3934
00000300: a81c 94be 1b51 73b8 9468 abb5 1a81 0635
00000310: d38a 9b3e afd0 fcb8 98ad 2d3f 3e6e 4cc0
00000320: 9e81 393f 417b e73e 55cb 41c0 60e3 563f
00000330: bc4a 34bf c4fd 97be 5e2f 91b3 64c8 a334
00000340: ce4c 90be 0f98 37b4 8a49 7f35 98c0 02b8
00000350: 16c0 983e a933 6839 84df 70b4 4635 993e
00000360: 731c 7ab5 70ad 723e c85f c0bd 7ce2 12bf
00000370: c07a f7bd db1d cf35 7d5f 8cbf 1aed 6036
00000380: 831f a4b4 e695 0ab5 e796 af3d f735 403e
00000390: 6a43 8abe d329 c2b8 8b9b 32b6 3367 fbb4
000003a0: d8ce e93d cc6c 083f 8ba5 14bf bef2 4db6
000003b0: 12b1 4abf ce59 7832 32a3 acb4 0c3c e8b4
000003c0: 75e4 fcb4 6eb3 3e35 cd26 c9b4 6be8 6434
000003d0: 02fd 54bf e6b4 8534 bd27 f63e 4a15 03b8
000003e0: 3c29 a6b3 894b f334 785a bf3d 2492 90b7
000003f0: 86b9 e2bf e060 1f3f 9a80 88b3 94d0 8934

convs.0.mlp_msg.0.bias f4 [48]
0.08881818 0.26064503 -0.031258907 0.1581131 -6.613319e-07 -6.973147e-07 -0.057046607 -1.0053543e-06
-5.4444936e-05 -0.8941775 -0.15108751 -0.013107587 -3.9235925e-07 -0.07625259 -0.00019607577 0.01817768
-0.80092263 -9.594958e-07 -9.405057e-07 -1.974253e-06 -0.1813158 -0.008778995 -0.18619189 -2.6195949e-06
-0.18668194 -1.2699686e-06 -0.3296126 -9.632721e-07 0.31833017 -1.453528e-06 0.020922195 -3.5323802e-07
0.16357563 -0.7794895 -1.536207e-07 -0.16124831 -0.19661587 -0.6356888 -4.6611085e-06 0.19236742
0.101385884 -7.372134e-07 -0.17388421 0.24707997 -0.21534723 -6.5515377e-07 -8.474401e-07 0.049731933
00000000: 4ee6 b53d 4473 853e 5709 00bd 67e8 213e
00000010: 6286 31b5 1a2f 3bb5 b4a9 69bd b6ef 86b5
00000020: ce5b 64b8 d1e8 64bf afb6 1abe 34c1 56bc
00000030: 72a5 d2b4 512a 9cbd b099 4db9 5ce9 943c
00000040: 4409 4dbf 06c8 80b5 0f77 7cb5 697d 04b6
00000050: d9aa 39be c6d5 0fbc 16a9 3ebe 4ccc 2fb6
00000060: 8d29 3fbe ca73 aab5 fcc2 a8be c749 81b5
00000070: 2cfc a23e d716 c3b5 0665 ab3c aaa4 bdb4
00000080: 5f80 273e a08c 47bf f0f2 24b4 471e 25be
00000090: ac55 49be 80bc 22bf 9e66 9cb6 f7fb 443e
000000a0: 67a3 cf3d ebe4 45b5 b40e 32be 8802 7d3e
000000b0: fc83 5cbe d3dd 2fb5 a47b 63b5 b6b3 4b3d

convs.0.mlp_msg.2.weight f4 [48, 48]
-0.019272933 -0.029241305 -0.019417971 -0.030843953 2.3607372e-07 3.8389186e-07 -0.008369958 6.6607026e-07
1.15504e-06 -0.015430409 0.0032752391 -0.005110418 -2.1726456e-07 -0.029513206 -3.899469e-06 -0.0134299025
-0.006418134 -1.541734e-07 -2.2089584e-07 5.126577e-07 -0.008628527 -0.011288209 -0.024321403 -1.8938506e-07
-0.008033199 -9.2779055e-07 -0.022047456 -4.375224e-07 -0.0022291946 -1.3014256e-06 -0.0114803575 -1.4543872e-06
-0.02369932 0.0015144323 -7.2285496e-07 -0.02017782 -0.03001621 0.00074005127 8.193522e-07 0.0006812879
-0.007892581 -2.4866978e-07 -0.033761453 -0.02621357 -0.01967625 -4.2089894e-07 -1.204994e-06 -0.03177588
-1.4741844e-06 -3.4291431e-06 -4.9386983e-07 -7.45514e-07 -1.7822308e-07 1.8128367e-07 -3.841839e-07 1.7579619e-07
-5.59394e-07 -1.6636495e-06 -5.1342806e-07 -4.3069647e-07 -3.2610512e-07 -4.9605967e-07 -5.8979124e-09 -1.1773816e-06
1.7288545e-07 1.9734377e-07 -1.2940358e-08 -2.5940315e-07 -7.9578314e-07 2.190432e-07 -1.3685157e-06 2.5080163e-07
-4.3089554e-07 -1.128703e-07 -2.5945198e-07 -1.3131213e-07 -7.942639e-07 3.6619176e-07 -1.1627737e-06 1.1395586e-07
-7.1103506e-07 -1.2507986e-06 5.192231e-07 -8.0032225e-07 4.7052737e-08 -4.384295e-07 -3.741229e-07 -6.997169e-07
-3.1879156e-07 -5.3586945e-07 -1.421343e-06 6.158701e-08 -8.7565195e-07 5.627494e-08 -4.4030635e-08 -5.7042416e-07
-9.263209e-08 -5.415661e-07 -1.4633639e-08 -4.7972935e-07 -5.6103982e-08 -3.2277973e-07 -3.7357592e-07 6.455558e-08
-3.284609e-08 -1.3523706e-07 -8.579437e-09 -1.990671e-07 1.9321767e-08 -4.2612038e-07 -1.2618854e-07 -1.3773433e-06
-4.769612e-07 -1.1077596e-07 3.9669618e-07 -2.2366004e-07 -5.332953e-07 -1.2628405e-07 -9.0555903e-07 4.0814675e-07
-5.367591e-07 4.619384e-08 -3.1570548e-07 -1.2238027e-07 -5.145951e-07 5.115997e-07 -4.3402906e-07 -5.2897883e-07
-6.4494816e-07 -2.2713173e-06 -2.517375e-07 -4.3572875e-08 -4.177594e-07 -9.7215064e-08 4.3758524e-07 -4.4012444e-07
-5.756146e-07 5.9849114e-08 -4.117769e-08 -9.309408e-07 -7.1227913e-07 2.442418e-07 1.1821607e-07 -6.291226e-07
-7.693485e-07 1.518341e-07 -4.940864e-07 -5.254197e-07 4.98482e-07 -2.239291e-07 -1.1248221e-06 3.553604e-07
-4.910521e-07 -2.3498751e-07 -3.3596228e-07 -2.6303877e-07 -3.3183127e-07 -2.151837e-07 1.8837858e-07 -5.422613e-07
-8.368328e-08 -1.3617516e-08 3.699734e-07 -1.509475e-07 -1.0357847e-06 -6.0961537e-07 -1.1776667e-06 -3.1695504e-07
-7.2130473e-07 -4.2758458e-07 -6.106567e-08 4.5038564e-07 -5.3497126e-07 1.18701024e-07 -1.0452769e-06 3.805443e-07
1.4883143e-08 -6.2133716e-07 4.411598e-07 -2.3401013e-07 -2.6218314e-07 -7.899739e-07 -8.753769e-08 -2.6094003e-07
-3.4430138e-07 1.4816635e-07 -9.119076e-07 -4.248413e-07 -6.760665e-07 -4.975781e-07 -3.7783218e-07 -2.185746e-07
-0.00046329194 -0.0012049302 -0.0018573133 -0.0009814015 6.54197e-08 -3.9718194e-07 -0.0004616819 3.8919143e-07
-2.502152e-07 -0.00094558153 -0.0017522225 -0.0010026376 -1.10901766e-07 0.0003889561 4.5665963e-08 -0.0017728653
-0.0021195933 4.2537891e-07 -1.0690518e-07 1.6896203e-06 0.0008754276 -0.0035252671 -0.00042612353 4.993933e-07
-0.0010992574 -3.715778e-07 -0.0008270405 -3.0318742e-07 -0.0019898233 -1.2514137e-08 -0.00074327335 -1.3162041e-07
-0.00013228037 -0.0015656066 -4.0675005e-08 -0.0013785914 -0.0018008159 -0.0010003668 -1.9234956e-07 -0.002168105
-0.0014300913 2.9108404e-07 -0.00173774 -0.0011255002 -0.0027098244 -3.020201e-07 1.146599e-07 -0.0012860193
-1.2289128 -0.52291715 0.11645537 0.13347127 -9.7033634e-08 6.580195e-08 -0.31787837 3.8360218e-07
5.7710547e-08 0.17339888 -0.001200244 -0.35181087 6.224027e-07 -1.1666086 -1.6135499e-07 -0.67654634
00000000: 45e2 9dbc 768b efbc 7012 9fbc 75ac fcbc
00000010: 737b 7d34 b219 ce34 2622 09bc 00cc 3235
00000020: df06 9b35 d4cf 7cbc 65a5 563b 4b75 a7bb
00000030: 3a49 69b4 aec5 f1bc 2fd8 82b6 1809 5cbc
00000040: 364f d2bb dd8a 25b4 632f 6db4 929d 0935
00000050: aa5e 0dbc 2ef2 38bc ae3d c7bc c559 4bb4
00000060: ae9d 03bc 480d 79b5 de9c b4bc 9fe4 eab4
00000070: ae17 12bb a5ac aeb5 1c18 3cbc 5d34 c3b5
00000080: 1425 c2bc ea7f c63a 370a 42b5 f54b a5bc
00000090: 8ee4 f5bc 0000 423a 74f1 5b35 7598 323a
000000a0: e24f 01bc ea80 85b4 7349 0abd d7bd d6bc
000000b0: 1630 a1bc e9f7 e1b4 47bb a1b5 6d27 02bd
000000c0: 97dc c5b5 3b20 66b6 7a92 04b5 551f 48b5
000000d0: 965d 3fb4 e0a6 4234 d541 ceb4 7dc2 3c34
000000e0: 4329 16b5 904a dfb5 82d2 09b5 793a e7b4
000000f0: 8c13 afb4 f628 05b5 96a6 cab1 8606 9eb5
00000100: 64a2 3934 71e5 5334 4c50 5eb2 1944 8bb4
00000110: cd9d 55b5 2332 6b34 d7ad b7b5 eaa5 8634
00000120: d555 e7b4 1b63 f2b3 cf4a 8bb4 cefe 0cb4
00000130: 6635 55b5 0399 c434 9a10 9cb5 e6b7 f433
00000140: f5dd 3eb5 1de1 a7b5 bd60 0b35 bad5 56b5
00000150: 0817 4a33 4b61 ebb4 0fdb c8b4 2ed4 3bb5
00000160: 6126 abb4 abd8 0fb5 f9c4 beb5 d141 8433
00000170: 580e 6bb5 f3b2 7133 321c 3db3 401f 19b5
00000180: 08ed c6b3 2460 11b5 6d67 7bb2 c0c6 00b5
00000190: fbf6 70b3 824a adb4 e28f c8b4 cea1 8a33
000001a0: a812 0db3 ae35 11b4 c364 13b2 26bf 55b4
000001b0: 04f9 a532 8ac5 e4b4 717e 07b4 28dd b8b5
000001c0: 8608 00b5 bae3 edb3 82f9 d434 3427 70b4
000001d0: c627 0fb5 b298 07b4 8b15 73b5 431f db34
000001e0: ce15 10b5 aa66 4633 3b7e a9b4 a267 03b4
000001f0: b522 0ab5 dd54 0935 8004 e9b4 26ff 0db5
00000200: 8020 2db5 ef6c 18b6 8a26 87b4 e224 3bb3
00000210: 6a48 e0b4 8cc4 d0b3 42ed ea34 3e4a ecb4
00000220: ef83 1ab5 6686 8033 59db 30b3 c4e5 79b5
00000230: 7333 3fb5 5620 8334 f9dd fd33 fae0 28b5
00000240: 3a85 4eb5 d707 2334 5ca1 04b5 910a 0db5
00000250: 6ccf 0535 2a71 70b4 98f8 96b5 5dc8 be34
00000260: d8d0 03b5 e050 7cb4 4e5e b4b4 c637 8db4
00000270: 8b26 b2b4 3f0d 67b4 1c45 4a34 ea8f 11b5
00000280: 5fb5 b3b3 78f2 69b2 c2a0 c634 2214 22b4
00000290: 4b05 8bb5 73a4 23b5 5210 9eb5 f829 aab4
000002a0: af9f 41b5 c78e e5b4 3523 83b3 88cc f134
000002b0: f29a 0fb5 94e8 fe33 714b 8cb5 9c4d cc34
000002c0: c1b0 7f32 f7c9 26b5 8bd8 ec34 3744 7bb4
000002d0: 2dc2 8cb4 980e 54b5 5bfc bbb3 5317 8cb4
000002e0: 6cd8 b8b4 a817 1f34 d0c9 74b5 be15 e4b4
000002f0: f07a 35b5 4f91 05b5 dcd8 cab4 54b1 6ab4
00000300: fee5 f2b9 c0ee 9dba 1871 f3ba 5fa2 80ba
00000310: dc7c 8c33 453c d5b4 e50d f2b9 10f2 d034
00000320: 5155 86b4 e7e0 77ba d5aa e5ba ef6a 83ba
00000330: e428 eeb3 ceec cb39 4222 4433 7d5f e8ba
00000340: e0e8 0abb a25f e434 bf93 e5b3 e9c6 e235
00000350: f47c 653a 2b08 67bb 5569 dfb9 0c0e 0635
00000360: f514 90ba 447d c7b4 c0cd 58ba c3c5 a2b4
00000370: b267 02bb c2fd 56b2 3bd8 42ba 8b53 0db4
00000380: beb4 0ab9 0a35 cdba a4b2 2eb3 dab1 b4ba
00000390: 5b09 ecba bd1e 83ba a588 4eb4 c416 0ebb
000003a0: e771 bbba 4946 9c34 e1c4 e3ba 8585 93ba
000003b0: 4f97 31bb 5425 a2b4 f23a f633 a68f a8ba
000003c0: 044d 9dbf e6dd 05bf 2780 ee3d b1ac 083e
000003d0: ce60 d0b3 014f 8d33 f4c0 a2be e2f1 cd34
000003e0: 6bdd 7733 7a8f 313e 8151 9dba 8e20 b4be
000003f0: 3013 2735 6e53 95bf ec40 2db4 2432 2dbf

convs.0.mlp_msg.2.bias f4 [48]
-0.017726064 -1.0068203e-06 -9.066455e-07 -1.5779489e-06 -0.0027940974 -0.30265525 -0.014392552 -3.294519e-06
-1.946235e-06 -0.00999357 -0.13999777 0.23055293 -0.036778968 -0.34222457 -7.6074866e-05 -1.7626106e-06
-0.03375811 -0.03872943 -0.072767295 -0.664761 -2.6094433e-06 -7.7955474e-07 -1.9772467e-06 -0.029443344
-1.1203307e-06 0.3506832 -1.0360211e-06 -1.0192366e-06 -0.19232617 -0.4416745 -0.041052222 -6.919762e-07
-0.8833727 -0.049507566 -0.23327814 -0.20811872 -0.15755446 0.3003148 -4.769684e-06 -2.5463169e-06
-0.6802843 0.120596506 -1.6604767e-05 -0.46371967 -3.849181e-06 -1.3453755e-06 -0.023177084 -0.8198997
00000000: 4036 91bc 1522 87b5 3460 73b5 e9c9 d3b5
00000010: 2d1d 37bb a1f5 9abe bdce 6bbc 6817 5db6
00000020: 109c 02b6 12bc 23bc 935b 0fbe 1116 6c3e
00000030: 8ba5 16bd 0f38 afbe 628a 9fb8 d792 ecb5
00000040: f245 0abd c0a2 1ebd 0507 95bd c72d 2abf
00000050: e51d 2fb6 9842 51b5 d7b0 04b6 2b33 f1bc
00000060: 455e 96b5 c08c b33e 6a0d 8bb5 b4cc 88b5
00000070: 27f1 44be 2923 e2be 6026 28bd 3ec0 39b5
00000080: b724 62bf 72c8 4abd 77e0 6ebe 131d 55be
00000090: f555 21be ddc2 993e 460b a0b6 64e1 2ab6
000000a0: 1d27 2ebf 4dfb f63d 774a 8bb7 aa6c edbe
000000b0: 3728 81b6 c092 b4b5 dedd bdbc f2e4 51bf

convs.0.mlp_upd.0.weight f4 [48, 96]
-5.6936904e-07 -4.426985e-07 -4.0013397e-08 -5.0945823e-07 1.3338833e-07 2.072282e-07 3.2384975e-08 -4.553071e-07
3.9529334e-07 1.1946496e-07 1.16571094e-07 -6.8340745e-07 -9.163091e-07 -1.7685218e-06 -9.1603795e-07 -1.307088e-06
-8.123859e-07 -3.8941e-07 -5.362328e-07 9.929253e-08 3.4093068e-07 -1.6129849e-07 -8.144433e-07 -5.4464186e-07
-4.3995504e-07 -2.683858e-07 -2.3208075e-07 -3.889767e-07 -1.5857995e-06 -1.9827717e-06 -1.7311287e-06 -2.4194173e-07
-1.2777812e-06 -3.0718112e-07 -2.2138893e-07 1.0857103e-07 1.5320059e-07 -9.8453484e-08 2.3913404e-07 -2.147322e-07
-1.4904539e-06 1.213315e-07 -8.303658e-07 9.063347e-08 1.8150327e-08 1.3344547e-07 -8.083712e-07 -2.395088e-07
-6.805754e-07 -2.5558558e-07 -3.064937e-08 4.7694474e-08 1.0769127e-07 -1.254299e-06 -2.8863064e-07 3.2893718e-07
-1.0427427e-07 -9.4755364e-07 -4.5748507e-07 -1.7197983e-06 -3.0963633e-07 1.9990678e-07 3.438372e-07 5.450752e-08
-9.4199714e-07 -2.100996e-06 -1.336723e-06 -6.6944176e-07 2.0134553e-07 -4.8548634e-07 -2.2147044e-07 -1.3753116e-07
2.8072822e-07 -2.8442474e-07 3.9032687e-07 7.686234e-09 -5.274901e-07 -1.727741e-06 3.2595884e-07 -7.6121346e-08
-1.5453567e-06 6.596916e-07 2.5884842e-07 -6.201472e-08 -7.570328e-07 -6.377843e-07 -4.3937973e-07 9.620845e-08
-8.0568617e-07 -1.912505e-06 3.9389616e-07 -7.483838e-07 8.701347e-09 -1.1668724e-07 -1.2925236e-06 -2.17012e-08
-4.1669555e-06 -1.294683e-06 -1.6104674e-07 -1.6969294e-07 -2.1690707e-06 2.8871764e-07 1.1846263e-07 -2.339488e-07
5.9194116e-07 -1.286942e-07 1.7658176e-07 -2.6681823e-06 2.3029816e-07 -4.771982e-06 -1.5524507e-06 -1.6149568e-06
-4.879432e-06 -2.0235497e-08 -4.390182e-06 -1.8592392e-07 5.2378148e-08 -1.2383875e-07 -3.1556021e-06 -2.614786e-06
-2.8191187e-06 1.067783e-07 -7.299931e-08 -2.2458586e-07 -3.7831567e-06 -6.7296996e-06 -1.65083e-06 1.2570815e-07
-6.1049064e-07 -2.1840216e-07 -2.908727e-07 -9.716517e-09 -4.54901e-08 3.4987707e-07 9.861779e-08 3.053847e-07
-2.704461e-06 -1.17402486e-07 -8.0814266e-07 2.042864e-07 5.2046758e-08 2.83218e-07 -4.39515e-06 -8.7186955e-08
-2.0880216e-06 -7.123057e-08 4.2000025e-08 3.1235544e-07 -4.0881918e-07 -8.442419e-07 -2.0996292e-07 -2.0496391e-07
-3.5363513e-07 -1.8185303e-06 -2.404283e-07 -4.364861e-06 -2.779793e-06 -3.8823264e-06 -1.5322885e-07 9.719422e-08
-4.3220202e-06 -6.076182e-06 -5.0015124e-08 -2.6105042e-06 2.7861432e-07 -1.4894938e-07 -2.3385492e-07 -8.775131e-09
-1.5283227e-07 -8.282211e-07 2.498028e-07 -1.804657e-07 -2.0367017e-06 -7.0550453e-07 -3.738093e-06 -2.2541079e-07
-9.484813e-08 -4.056068e-06 -6.686345e-08 -2.3233606e-06 -2.5641864e-07 -1.8883358e-06 -1.664223e-07 -2.2727124e-07
-2.0226422e-07 -2.4760227e-06 -3.0008013e-07 8.5974045e-07 -3.8765368e-08 -3.5910466e-07 -5.4252932e-06 -2.2177155e-06
-1.3256648e-06 -1.0024837e-06 2.0613655e-07 -1.3132569e-07 -1.136147e-06 -8.418665e-09 2.6675406e-07 -5.1971233e-07
1.2144459e-07 -4.3230207e-07 1.7094354e-07 -3.5432592e-08 -3.5492388e-07 -7.173452e-07 -4.4012106e-07 -5.926104e-07
-7.668746e-07 9.5022344e-08 -2.349049e-07 -2.6664097e-07 2.2182908e-07 -6.104477e-08 4.611055e-08 -8.0574375e-07
-2.4034185e-07 -3.797591e-07 -3.7921905e-07 1.1336914e-07 -3.404699e-07 -1.657733e-06 -8.311584e-07 3.150787e-08
-9.09245e-07 2.5837743e-08 -1.3637727e-07 2.6315902e-07 6.774279e-08 2.4210541e-07 1.3083186e-08 -2.49241e-07
-5.7232546e-07 4.1236984e-08 -3.109072e-07 -2.7235754e-07 2.7016847e-08 -8.813949e-08 -1.5831832e-06 -3.112636e-07
-2.0458033e-06 -2.267652e-07 -1.3824625e-07 -4.2291225e-07 5.202061e-08 -3.5998983e-07 -1.8836045e-07 -6.283423e-08
-2.284071e-07 -1.3080175e-06 -4.404428e-07 -2.6961006e-06 -6.101406e-07 -2.113203e-08 2.1633369e-07 1.3316533e-07
00000000: bed6 18b5 05ac edb4 32db 2bb3 b4c1 08b5
00000010: 8139 0f34 7482 5e34 a817 0b33 ee70 f4b4
00000020: b438 d434 4746 0034 a355 fa33 6773 37b5
00000030: 48f8 75b5 f25d edb5 a6e5 75b5 346f afb5
00000040: bc12 5ab5 1a10 d1b4 a3f1 0fb5 a53a d533
00000050: 2809 b734 6431 2db4 1ea0 5ab5 8133 12b5
00000060: f632 ecb4 aa16 90b4 df31 79b4 8dd4 d0b4
00000070: a8d7 d4b5 c20f 05b6 2159 e8b5 38e4 81b4
00000080: 3a80 abb5 a7ea a4b4 edb6 6db4 8e27 e933
00000090: 757f 2434 606d d3b3 5562 8034 2391 66b4
000000a0: 9b0b c8b5 5947 0234 4ee6 5eb5 47a2 c233
000000b0: fee8 9b32 3649 0f34 d9fe 58b5 d795 80b4
000000c0: c9b0 36b5 6a37 89b4 57a3 03b3 a1d8 4c33
000000d0: e743 e733 6359 a8b5 18f5 9ab4 c898 b034
000000e0: 63ed dfb3 645b 7eb5 459c f5b4 d2d3 e6b5
000000f0: 183c a6b4 f5a5 5634 a098 b834 a71b 6a33
00000100: 8ddd 7cb5 d6fe 0cb6 7469 b3b5 b0b3 33b5
00000110: 7031 5834 5e52 02b5 55cd 6db4 47ac 13b4
00000120: feb6 9634 0ab3 98b4 1e8e d134 6a0c 0432
00000130: d898 0db5 bbe4 e7b5 71ff ae34 2778 a3b3
00000140: 0d6a cfb5 a915 3135 dbf7 8a34 f42c 85b3
00000150: e636 4bb5 3434 2bb5 e4e3 ebb4 289b ce33
00000160: 5546 58b5 9658 00b6 ad78 d334 8be4 48b5
00000170: ee7c 1532 7d95 fab3 c67a adb5 7269 bab2
00000180: e0d1 8bb6 f8c4 adb5 31ec 2cb4 d734 36b4
00000190: 5a90 11b6 0d01 9b34 8565 fe33 5b33 7bb4
000001a0: e3e5 1e35 312f 0ab4 6d9a 3d34 060f 33b6
000001b0: e047 7734 031f a0b6 cd5d d0b5 7ec1 d8b5
000001c0: 00ba a3b6 54d2 adb2 604f 93b6 61a2 47b4
000001d0: 62f6 6033 89f8 04b4 d5c4 53b6 ae79 2fb6
000001e0: 1730 3db6 fe4d e533 ccc3 9cb3 b125 71b4
000001f0: 23e2 7db6 aecf e1b6 1692 ddb5 65fa 0634
00000200: 99e0 23b5 ee81 6ab4 3d29 9cb4 b2ed 26b2
00000210: e560 43b3 bdd6 bb34 b4c7 d333 c1f3 a334
00000220: 497e 35b6 b31e fcb3 24ef 58b5 d159 5b34
00000230: 048a 5f33 2f0d 9834 0d7a 93b6 893b bbb3
00000240: f01f 0cb6 6cf7 98b3 8463 3433 ceb1 a734
00000250: ae7b dbb4 dd9f 62b5 2b72 61b4 0d14 5cb4
00000260: 3edb bdb4 3a14 f4b5 3714 81b4 df75 92b6
00000270: 7b8c 3ab6 ee44 82b6 3a87 24b4 16b9 d033
00000280: df05 91b6 02e2 cbb6 36d0 56b3 1f30 2fb6
00000290: 7694 9534 e5ee 1fb4 8d19 7bb4 6fc1 16b2
000002a0: 371a 24b4 ec52 5eb5 a31c 8634 09c6 41b4
000002b0: 45ae 08b6 e761 3db5 f3db 7ab6 7208 72b4
000002c0: 50af cbb3 5c19 88b6 9296 8fb3 08eb 1bb6
000002d0: e9a9 89b4 b972 fdb5 d0b1 32b4 d807 74b4
000002e0: f72d 59b4 bf29 26b6 b31a a1b4 eac8 6635
000002f0: f97e 26b3 f8ca c0b4 ea0a b6b6 10d4 14b6
00000300: 7fed b1b5 148d 86b5 6256 5d34 8802 0db4
00000310: b77d 98b5 aea1 10b2 6636 8f34 5c82 0bb5
00000320: 6f66 0234 2517 e8b4 9a8c 3734 8c2e 18b3
00000330: 5e8c beb4 968f 40b5 c749 ecb4 e013 1fb5
00000340: 39db 4db5 160f cc33 2b3a 7cb4 db26 8fb4
00000350: ea2f 6e34 b817 83b3 160b 4633 4a4a 58b5
00000360: 5508 81b4 b1e1 cbb4 7897 cbb4 5875 f333
00000370: d4c9 b6b4 467f deb5 c51c 5fb5 4553 0733
00000380: d712 74b5 ccf1 dd32 196f 12b4 4d48 8d34
00000390: fe79 9133 b7fa 8134 76c4 6032 6ccf 85b4
000003a0: e8a1 19b5 8b1c 3133 c3ea a6b4 8938 92b4
000003b0: ad12 e832 3247 bdb3 c37d d4b5 be1b a7b4
000003c0: a24a 09b6 be7c 73b4 d770 14b4 9e0c e3b4
000003d0: 446d 5f33 a044 c1b4 2040 4ab4 7cef 86b3
000003e0: 1140 75b4 248f afb5 ff75 ecb4 a8ee 34b6
000003f0: 8bc8 23b5 d385 b5b2 5a49 6834 35fc 0e34

convs.0.mlp_upd.0.bias f4 [48]
-3.0325461e-06 -5.49424e-06 -7.8634037e-07 -2.3087828e-06 -4.097237e-05 -6.7553397e-06 0.14634629 -8.2655146e-07
0.55330825 -1.0006924e-05 0.031557854 -2.199863e-06 -1.1837463e-06 -3.230225e-06 -0.6778476 -2.471464e-06
-2.0491236e-06 -0.0013546784 0.7303831 -7.220048e-07 0.5712196 0.69289684 0.26334503 0.13494192
-4.5668808e-06 -3.5078108e-06 -0.00010195213 -0.84638053 -2.9767536e-06 0.54279715 -2.1800247e-06 -2.4847575e-05
-1.4329297e-06 0.52692217 -2.3632404e-06 -4.8852064e-07 -0.56103694 0.45031267 -1.5131336e-06 -2.447363e-06
-7.168704e-07 -9.077835e-07 -1.3406793e-06 0.09951591 -3.6083463e-07 -1.936793e-06 -6.711948e-07 -1.38876285e-05
00000000: bf82 4bb6 2a5b b8b6 e614 53b5 96f0 1ab6
00000010: bfd9 2bb8 edab e2b6 cddb 153e 2fe0 5db5
00000020: 9ca5 0d3f 69e3 27b7 cf42 013d 5ca1 13b6
00000030: 37e1 9eb5 d8c6 58b6 6c87 2dbf 6edb 25b6
00000040: ad83 09b6 778f b1ba 63fa 3a3f cbcf 41b5
00000050: 733b 123f b061 313f 29d5 863e 372e 0a3e
00000060: 353d 99b6 bb67 6bb6 22cf d5b8 65ac 58bf
00000070: 3dc4 47b6 c1f4 0a3f 8a4c 12b6 c36f d0b7
00000080: 1753 c0b5 5fe4 063f 2998 1eb6 e222 03b5
00000090: 1ea0 0fbf 628f e63e e016 cbb5 603d 24b6
000000a0: f56e 40b5 68ae 73b5 64f1 b3b5 ffce cb3d
000000b0: bcb8 c1b4 daf9 01b6 282c 34b5 e9fe 68b7

convs.0.mlp_upd.2.weight f4 [48, 48]
-1.5188958e-08 -3.749412e-07 3.3320129e-07 3.0160402e-07 3.3331307e-07 -2.2518682e-07 -1.927343e-06 3.531707e-07
-2.5099916e-06 5.486573e-07 1.0626511e-07 1.295157e-06 2.0883266e-07 4.713663e-07 1.0462654e-07 6.710475e-07
-4.002963e-08 -6.252475e-08 -2.4360331e-06 -4.810043e-07 -1.2648014e-06 -2.3110767e-06 -1.1634479e-06 -3.0075378e-07
-3.469341e-07 4.5949363e-07 2.9092885e-07 -1.6378932e-06 5.1549785e-07 -1.1347718e-06 -8.159363e-08 -9.913404e-08
2.325498e-07 -1.1994376e-06 8.0592287e-07 5.7566365e-07 -3.189528e-06 -1.9814454e-06 2.7065119e-07 3.1722715e-07
-3.6714866e-07 -7.16418e-08 4.1536364e-07 -8.368091e-07 1.990715e-07 -4.6381655e-07 -2.4626416e-07 -5.5929763e-07
-1.3257221e-06 -1.8845016e-06 -7.4495836e-07 1.0926544e-07 8.073373e-06 -1.6365041e-06 0.013379946 2.4174582e-07
0.12923187 -2.126726e-07 0.34943447 6.8512367e-07 5.908772e-07 -3.3952375e-07 0.014975056 1.635998e-06
-3.1867816e-07 4.0517443e-06 0.1586892 4.6506482e-08 -0.112829335 -0.54651546 0.13300173 -0.26742643
2.5185968e-06 2.1493179e-06 -3.9400526e-05 -0.09332819 6.6652285e-07 0.5924467 3.10942e-07 4.367761e-06
-6.0343103e-07 -0.24733953 -3.169841e-06 9.0917035e-07 0.1067622 0.027553415 5.5808505e-07 -4.913184e-07
2.4550434e-07 -4.106602e-07 1.8139879e-07 -0.2684118 5.5602698e-08 -9.10941e-08 2.46088e-07 4.2223337e-06
9.279576e-07 -2.634755e-07 -3.9804814e-07 -4.515597e-07 4.8850876e-07 4.361495e-07 -0.0006070447 -4.1855296e-07
-0.00042939826 -4.5572722e-07 -0.0002452301 4.6032105e-07 -2.9512807e-07 -9.767141e-07 2.8883494e-07 6.925422e-08
-5.340292e-07 -4.6554288e-07 -0.00021144006 4.1187008e-07 -0.00031717157 -0.0005737987 -0.0005632705 -0.0002843578
-4.6125572e-07 1.6844179e-07 3.6319964e-08 -0.0005201667 6.326704e-08 -0.00024540263 2.7680102e-07 4.2211826e-07
-1.12846074e-07 0.0001431922 -1.8929151e-07 8.0861105e-07 -0.00033526175 -0.0006604944 -2.9290996e-07 -1.273267e-07
-2.6009766e-07 -4.0525498e-07 3.4346914e-07 -0.00066316134 4.803932e-07 -1.165879e-07 -1.3497885e-07 8.316539e-08
-1.397693e-06 -3.739464e-06 1.2741018e-06 8.0664466e-07 -4.119508e-06 -2.9496166e-06 -0.1364048 1.123788e-07
0.03322152 6.338639e-07 -0.48352966 4.034375e-07 -1.0395747e-07 1.1267681e-06 0.10286867 -7.457599e-07
-7.852136e-08 -0.00020537422 -0.47712055 -2.5308148e-07 0.7603093 0.5095364 -1.0012094 -0.61902744
-1.6103367e-06 -8.498148e-07 -1.071813e-06 -0.98053515 1.3592519e-06 -0.08891014 9.336562e-08 6.4688948e-06
-2.1534975e-06 -0.3164525 3.4059744e-06 8.993672e-07 0.12042915 0.06192662 -4.0912911e-07 6.497847e-08
3.715841e-07 -8.707489e-07 2.8946508e-07 -1.7210087 3.532672e-07 -1.5435644e-07 3.0812186e-07 2.0409668e-06
7.2330685e-08 3.451072e-07 2.6437502e-07 -2.676573e-07 -2.5507362e-07 1.2917924e-07 -1.315061e-06 7.1950765e-08
-7.9821035e-07 -5.211225e-07 -6.183219e-07 -3.0365544e-07 -9.664664e-08 1.6071072e-06 -4.0593358e-07 -3.7706883e-07
-1.5321471e-07 -1.7976201e-07 -3.6713288e-07 -4.3489817e-07 -4.4375213e-07 -5.458759e-07 -4.734089e-08 -1.5719301e-07
2.0493e-07 1.7742693e-07 -8.34624e-08 -6.70145e-07 -2.3969825e-08 -5.100238e-07 4.1435874e-07 -1.08539865e-07
-3.181079e-07 1.4736696e-07 -2.4413217e-07 -4.0322143e-07 -1.1314635e-07 -1.9815666e-06 4.511754e-07 -1.3380067e-07
7.826919e-08 -1.5199235e-07 -4.284436e-07 -3.825224e-07 7.491708e-08 4.858364e-07 2.6942965e-07 8.996587e-08
7.421402e-07 6.3118017e-07 -2.2385055e-07 5.1579946e-07 -3.209476e-07 -1.0069301e-06 -1.3830611e-06 -3.2513606e-07
-2.6557995e-05 -4.0966674e-07 -4.7956523e-06 -2.636865e-07 3.1871465e-07 1.6773419e-06 -2.6909106e-07 -4.5478015e-07
00000000: df78 82b2 874b c9b4 d6e2 b234 24ec a134
00000010: 33f2 b234 e2ca 71b4 8057 01b6 699b bd34
00000020: 5471 28b6 7147 1335 dd33 e433 41d5 ad35
00000030: 7c3b 6034 1710 fd34 0caf e033 0822 3435
00000040: 0bed 2bb3 5845 86b3 bb7a 23b6 5d1e 01b5
00000050: 3fc2 a9b5 ff17 1bb6 c427 9cb5 4977 a1b4
00000060: 4242 bab4 53b0 f634 f530 9c34 95d5 dbb5
00000070: be60 0a35 764e 98b5 9338 afb3 84e3 d4b3
00000080: cdb2 7934 5dfc a0b5 9956 5835 4e87 1a35
00000090: ac0b 56b6 f9f8 04b6 044e 9134 5e4f aa34
000000a0: 871c c5b4 7fd9 99b3 25ff de34 15a1 60b5
000000b0: 5bc0 5534 7602 f9b4 4a36 84b4 a422 16b5
000000c0: 77ef b1b5 fbee fcb5 26f9 47b5 50a5 ea33
000000d0: df72 0737 daa5 dbb5 9037 5b3c 4bc9 8134
000000e0: 5c55 043e 005b 64b4 13e9 b23e 57e9 3735
000000f0: c69c 1e35 ca47 b6b4 f059 753c 7794 db35
00000100: cb16 abb4 38f4 8736 6c7f 223e 6bbe 4733
00000110: 1113 e7bd 70e8 0bbf 9b31 083e 1eec 88be
00000120: 2a05 2936 003d 1036 fe41 25b8 da22 bfbd
00000130: 1aeb 3235 96aa 173f 8bef a634 c88e 9236
00000140: 77fb 21b5 9346 7dbe 74b9 54b6 b60d 7435
00000150: 24a6 da3d b3b7 e13c 50cf 1535 25e3 03b5
00000160: dccd 8334 b578 dcb4 85c6 4234 456d 89be
00000170: d0cf 6e33 839f c3b3 141e 8434 92ad 8d36
00000180: c318 7935 cc73 8db4 52b3 d5b4 e56d f2b4
00000190: 1122 0335 ee27 ea34 1522 1fba 7bb5 e0b4
000001a0: dc20 e1b9 acaa f4b4 3a92 80b9 0b22 f734
000001b0: 1872 9eb4 a417 83b5 2c11 9b34 e9b8 9433
000001c0: 355a 0fb5 baef f9b4 02b6 5db9 fe1e dd34
000001d0: 0c4a a6b9 fb6a 16ba 72a8 13ba dc15 95b9
000001e0: 81a2 f7b4 eddc 3434 39fe 1b33 cc5b 08ba
000001f0: 6cdd 8733 62a9 80b9 3e9b 9434 7e9f e234
00000200: c955 f2b3 dd25 1639 0e40 4bb4 540f 5935
00000210: 12c6 afb9 0725 2dba 3d41 9db4 4cb7 08b4
00000220: 8da3 8bb4 d291 d9b4 0a66 b834 01d8 2dba
00000230: 5ff4 0035 e05e fab3 b4ee 10b4 a898 b233
00000240: 5e98 bbb5 81f3 7ab6 ce01 ab35 3388 5835
00000250: 4e3a 8ab6 07f2 45b6 b3ad 0bbe e654 f133
00000260: 4a13 083d cc26 2a35 3391 f7be 0798 d834
00000270: 393f dfb3 753b 9735 cfac d23d 3b30 48b5
00000280: 939f a8b3 b959 57b9 2549 f4be 41df 87b4
00000290: a1a3 423f fa70 023f a127 80bf 9578 1ebf
000002a0: bf22 d8b5 d41e 64b5 37db 8fb5 5a04 7bbf
000002b0: 8a6f b635 8516 b6bd 4b80 c833 620f d936
000002c0: ce84 10b6 1006 a2be 3292 6436 0b6c 7135
000002d0: 8fa3 f63d c4a6 7d3d 47a6 dbb4 4b8a 8b33
000002e0: 217e c734 69bd 69b5 c767 9b34 034a dcbf
000002f0: ada8 bd34 2dbd 25b4 f26b a534 8bf7 0836
00000300: 3754 9b33 2c47 b934 6def 8d34 8ab2 8fb4
00000310: 0df1 88b4 85b4 0a34 2781 b0b5 5a83 9a33
00000320: 9944 56b5 44e3 0bb5 c2fa 25b5 1606 a3b4
00000330: 0d8c cfb3 c8b3 d735 16ef d9b4 f26f cab4
00000340: 5783 24b4 9b04 41b4 5c1a c5b4 f37b e9b4
00000350: d43c eeb4 4e88 12b5 dc53 4bb3 e3c8 28b4
00000360: bb0a 5c34 be82 3e34 f13b b3b3 04e4 33b5
00000370: 34e6 cdb2 92e8 08b5 0875 de34 6c16 e9b3
00000380: 6bc8 aab4 ec3b 1e34 4511 83b4 557a d8b4
00000390: ddfa f2b3 0efb 04b6 1339 f234 d9aa 0fb4
000003a0: f114 a833 5733 23b4 d704 e6b4 7a5d cdb4
000003b0: 1ae2 a033 6c6a 0235 21a6 9034 4333 c133
000003c0: 7c37 4735 5f6e 2935 925b 70b4 7875 0a35
000003d0: b44e acb4 db25 87b5 9ea1 b9b5 5c8e aeb4
000003e0: dcc8 deb7 2bf0 dbb4 57ea a0b6 cc90 8db4
000003f0: cf1b ab34 0721 e135 9877 90b4 8228 f4b4

convs.0.mlp_upd.2.bias f4 [48]
-1.3346128e-06 0.09350453 -0.00103937 0.124179184 -9.605567e-07 -9.135634e-06 -2.0984614e-06 -4.4460858e-06
-5.979128e-06 -0.07804619 -0.0006563465 -2.418499e-06 -0.049387757 -1.4752189e-06 -4.2343063e-07 0.01752331
-6.469048e-07 0.10084296 -6.0699163e-05 -4.9391924e-06 0.39673883 0.23800482 -0.00055480027 -1.1418703e-06
-6.883874e-05 -5.995095e-07 -0.009054371 -5.8122273e-06 -7.830987e-07 -9.686548e-07 -9.3668126e-07 -0.00015750126
-2.969086e-07 -1.7818091e-06 -4.1573376e-06 -1.7443845e-06 -5.118915e-05 -0.8306398 -5.934606e-07 0.038561847
0.19955051 -9.148439e-07 -9.036141e-05 -1.145487e-06 -5.6821867e-05 -1.9904828e-06 -1.4574699e-06 -1.4607107e-06
00000000: f220 b3b5 4e7f bf3d 783b 88ba a851 fe3d
00000010: 7aec 80b5 4045 19b7 4bd3 0cb6 962f 95b6
00000020: 52a0 c8b6 aed6 9fbd ab0e 2cba 7f4d 22b6
00000030: d14a 4abd 2300 c6b5 dd53 e3b4 0b8d 8f3c
00000040: f6a6 2db5 c186 ce3d 3b97 7eb8 57bb a5b6
00000050: 5a21 cb3e 89b7 733e 0470 11ba 5d42 99b5
00000060: 845d 90b8 fbed 20b5 c958 14bc a706 c3b6
00000070: 2236 52b5 ba02 82b5 3f70 7bb5 ec26 25b9
00000080: cf66 9fb4 7f26 efb5 427f 8bb6 9820 eab5
00000090: eeb3 56b8 cfa4 54bf 4d4e 1fb5 07f3 1d3d
000000a0: f856 4c3e 9893 75b5 6a80 bdb8 a2be 99b5
000000b0: 0454 6eb8 3c94 05b6 499e c3b5 a30d c4b5
